results/NCC_classifier_best.pt (torch, 133041 bytes, 18 tensors)

emb_layer1.0.weight f4 [100, 2]
00000000: a819 35c1 dc45 e63d 705e f7c0 6fe4 253f
00000010: 1120 76c1 e59d b33e ceb6 0940 8f42 e8bf
00000020: 2539 89be 984a a240 fbd3 a13f bcb0 1fc0
00000030: bf10 e1c0 5b69 01bf 0612 b33d e970 5d41
00000040: 9f0e dfbf 3d8c bf3f 8cf4 0ec0 0475 dabf
00000050: 48b2 5141 840c 073f 3be4 23bf e622 c840
00000060: 6c4b 8541 4d0f 0fbd 4f40 9140 acb2 a93e
00000070: 4bef e640 8b26 84bf c199 1cbe 2759 3bc1
00000080: 5efc 7541 4922 2e3f 1cfc 2d3e 218b 74c1
00000090: 5f18 1940 c5d8 ad3f 2bc6 a7be 593d 4441
000000a0: f1fe aebf ee5a 0f40 ca91 8540 0431 a93e
000000b0: 2504 0640 992f ffbf b2ad 0940 1982 bd3f
000000c0: 0b4a 98c0 c249 2e3e 190f 53c0 92c8 b0be
000000d0: 2ab5 b2bf 65ac 12c0 f780 0ec1 495f b5be
000000e0: a8c0 e5c0 3a93 d13e e0b3 11c1 9e9e e8bd
000000f0: 2b49 55c1 6174 bdbe 3cdf 0640 f3d8 dc3f
00000100: a2a5 14c0 ad7a b7bf 796c 3140 b9c0 87be
00000110: a37e c5be ab47 29c1 903c 9ac0 e373 69be
00000120: 447d 75c0 5a31 13be 055c 633e 54a0 5d41
00000130: b71c 2cc1 be2d 323f 1fc3 a63f d17a 07c0
00000140: 2c78 c7c0 7598 d13d caff 003f d4a5 5dc1
00000150: cc45 eb3f d0ba fdbf a1ad 65c0 5682 cfbe
00000160: e01b 2cc1 6fd4 80be fa11 d13e a7a0 5841
00000170: c3ba 2240 a4b7 b83f 319f d83e 61a3 5641
00000180: 97db fcbf c791 e4bf cd5e 9c40 762b aabe
00000190: 0fb4 edbf 7da4 d13f e571 08c0 c067 c23f
000001a0: 76a2 9240 6177 4a3e cd68 6941 0ca4 8b3e
000001b0: 7f1f 3d3f cef3 56c1 39fc 7e40 a4c4 a3be
000001c0: ca28 5641 3b59 12be 02f1 2fc1 1de0 14bf
000001d0: 03a6 0140 4319 d1bf 43e1 ddbf 46b7 e0bf
000001e0: c2d8 a840 0288 9bbe e56f b13f c306 28c0
000001f0: 65d3 2440 c80c 943f cbee 20c1 ae26 c4be
00000200: 329e d23f 4523 12c0 b538 e2c0 8349 8cbf
00000210: 2f83 a8c0 a97c 60bf 6b67 f8bf c34a a53f
00000220: 5884 25c1 5a67 00bf ef56 4541 818e 633f
00000230: 3b25 9c40 3209 8b3d 8949 1840 0c47 b53f
00000240: a093 0c3f 8fea 46c1 2e2d 9440 8783 c83d
00000250: 7272 0940 f7e0 bb3f 24de 6bc1 482f ca3d
00000260: 8c0b 443d 1f3b 7741 bcaa 6ebe 4a95 2bc1
00000270: dd96 44c1 e155 b4be 4089 5bbf d7ab 783f
00000280: a873 f6bf a322 ac3f a5ca 99bf 986a 19c0
00000290: 4258 adbb 3f65 6b41 03f4 c2bf b76d 0dc0
000002a0: 0476 2fc0 98a2 673f 2561 b9c0 3f20 86bf
000002b0: 7bf0 143f 7d63 6941 509f bc3f 535a 14c0
000002c0: c9da 46bf 375d 3740 41ef 82c1 c79e 4ebe
000002d0: 3d52 86be 4477 59c1 989a 753d 6a0a 80c0
000002e0: ca43 a2be 437d 4ac1 851c 51be 1daa 71c1
000002f0: 07fb 5fc1 0c80 b9bd 6dc0 5541 d11b 393f
00000300: 2b01 30c1 f0cf 3abf 2ccc fabf 6f78 b9bf
00000310: f02d 0ac0 7835 d8bf a86a fabe c922 9cbe
-11.318764 0.11243793 -7.730278 0.64801687 -15.382829 0.350814 2.1517825 -1.8145312
-0.2680141 5.0716057 1.2642816 -2.495162 -7.033294 -0.50551385 0.08743672 13.840066
-1.7426337 1.4964672 -2.233676 -1.706696 13.106026 0.5275347 -0.6402013 6.25426
16.661827 -0.0349267 4.5391 0.33144128 7.2167106 -1.0324262 -0.15293027 -11.709266
15.374113 0.68021065 0.16990703 -15.283967 2.3921125 1.3581778 -0.32768378 12.264977
-1.3671552 2.239925 4.1740465 0.33045208 2.094003 -1.9936401 2.1512265 1.4805328
-4.7590384 0.17020324 -3.2977965 -0.34528023 -1.3961537 -2.2917721 -8.906486 -0.3542426
-7.1797676 0.40932637 -9.106415 -0.11358379 -13.330363 -0.37002853 2.1073751 1.7253708
-2.3226094 -1.4334313 2.7722456 -0.26514223 -0.3857318 -10.579997 -4.819893 -0.22798114
-3.8357706 -0.14374295 0.22203071 13.851643 -10.75701 0.6960105 1.3028296 -2.116871
-6.2334194 0.10234157 0.50390303 -13.852985 1.8380675 -1.9822636 -3.5887225 -0.40529126
-10.756805 -0.25162074 0.40834028 13.539222 2.542649 1.4431043 0.42308953 13.414887
-1.9754514 -1.7856988 4.8865724 -0.33236283 -1.8570575 1.6378323 -2.1319516 1.5187912
4.5823317 0.19772102 14.588086 0.27273595 0.73876184 -13.434523 3.9841444 -0.31985962
13.384958 -0.14291851 -10.99634 -0.5815447 2.0257576 -1.6335834 -1.733437 -1.7555931
5.2764597 -0.30377203 1.3862273 -2.6254127 2.5754025 1.15664 -10.058299 -0.3831076
1.6454527 -2.2834027 -7.0694222 -1.0959934 -5.2660136 -0.87690216 -1.9406561 1.291344
-10.3448105 -0.501577 12.333724 0.8888932 4.8795447 0.06788863 2.3794882 1.4162307
0.5491276 -12.432265 4.630515 0.09790712 2.1476102 1.4678029 -14.741734 0.098722994
0.047862574 15.451934 -0.23307317 -10.723948 -12.286832 -0.3522177 -0.857563 0.97137207
-1.9254045 1.344807 -1.2014967 -2.397131 -0.005290062 14.712218 -1.5230716 -2.2098215
-2.741578 0.90482473 -5.7931085 -1.0478591 0.58179444 14.586789 1.4736118 -2.318013
-0.7767759 2.8650644 -16.366823 -0.20177756 -0.26234618 -13.591618 0.059961885 -4.0012712
-0.31692344 -12.655581 -0.20421036 -15.104032 -13.998786 -0.09057626 13.359479 0.7230807
-11.000285 -0.7297354 -1.9593558 -1.4489878 -2.1590538 -1.6891317 -0.48909497 -0.3049529

emb_layer1.0.bias f4 [100]
00000000: 978d 4a3d c169 07c0 fac1 0fc1 91d0 acbf
00000010: 4923 893f 661a 8bc0 6d81 823f adfb 7cbf
00000020: 9bad ef3d 4919 6dc0 f447 0040 78c2 1a41
00000030: 3ba7 14be 73fb 5cbf caf0 6a3d 36d5 afbb
00000040: c680 603e 99b5 3ebf a338 a4c0 e5f4 52c0
00000050: 6aaa c0bf 0590 76be f555 2040 53d7 24c0
00000060: 7044 43bf 20df 633f d735 d03e e856 cd3f
00000070: bcdf 9fc0 2399 2abe d688 48be 3a62 b6c0
00000080: c230 53c0 f308 e0bf 1c67 24c0 2f71 343e
00000090: 5f71 a63f 9260 0940 3476 aac0 370a 74be
000000a0: 155b d23d a928 bac0 96ca 80bd a22d 26c0
000000b0: fbf0 b3bf 3927 c33f 6a87 60c0 fa7b 4240
000000c0: d833 93bf 9c1e 2b3e 65b0 c93e 3e3d cc3f
000000d0: 4c72 b6bf a678 ad3f afcd a8c0 5ede f2be
000000e0: efa0 7940 cbb8 08c0 367d 18bf bb6b e2bf
000000f0: 9100 5fbf ef92 d13d 68ff 3ec0 394a 64bf
00000100: bf4a d3bd fd78 53bf ba30 4ac1 c023 6dbf
00000110: a183 e5bf a2bb 5540 911d b23e db7a 95c0
00000120: 0193 0bc0 ed7b 76bf 404d 7cc0 2113 c9c0
00000130: 70be 16c0 24ff 8bc0 ce25 babe b23a 153d
00000140: fc56 133f 2755 b8bf 06a8 c3bf 9540 4fc0
00000150: fd40 01c0 edb3 603f 79ad cabf 7088 87bf
00000160: 31a6 8740 9a05 c5c0 b0de dabd ced3 bbbf
00000170: b0c7 2fc0 2ef7 203f beb6 e7c0 eef4 0bc0
00000180: 8c82 c8bf 0d4e 13bf 2ddf 4fc0 628a 0cbf
0.049451437 -2.1158297 -8.984858 -1.350115 1.0713893 -4.3469725 1.0195748 -0.98821527
0.117030345 -3.7046683 2.0043917 9.672478 -0.14516918 -0.8632118 0.05735854 -0.005365993
0.21924123 -0.74495846 -5.1319137 -3.2961972 -1.5052006 -0.24078377 2.5052464 -2.5756423
-0.762763 0.89012337 0.40666077 1.6042147 -4.9960613 -0.1665998 -0.19583449 -5.6994905
-3.299851 -1.7502731 -2.5687933 0.17621301 1.3003348 2.1465192 -5.326929 -0.23832022
0.10271279 -5.8174634 -0.0628864 -2.5965352 -1.4057916 1.5246345 -3.508265 3.038817
-1.1500196 0.16710895 0.3939239 1.595619 -1.4253631 1.3552444 -5.275108 -0.47435278
3.9004476 -2.1362789 -0.59566057 -1.7689127 -0.8711024 0.102331035 -2.9843388 -0.89175755
-0.10316991 -0.8260649 -12.636896 -0.92632675 -1.7930795 3.3395772 0.34788182 -4.671247
-2.1808474 -0.96282846 -3.942215 -6.283585 -2.3553734 -4.374895 -0.36356968 0.03643293
0.575546 -1.4400986 -1.5285652 -3.2383168 -2.0195916 0.87774545 -1.583419 -1.0588512
4.239037 -6.156934 -0.106870055 -1.4674013 -2.746563 0.62877166 -7.2410574 -2.1868243
-1.566484 -0.5754097 -3.2479966 -0.54898655

emb_layer1.1.weight f4 [100]
00000000: da64 de3d 60bb b940 b479 2840 8802 a440
00000010: 9fb6 ca3d 1ea4 c840 5c33 8a3d 74a2 e73f
00000020: 599e 3b41 5738 3241 e948 0d40 e000 ce3f
00000030: 7dbc 0040 957a 7a3e d2db 0641 139b b33f
00000040: 0fd8 0a40 2e02 f43f cf61 e040 fc18 2c40
00000050: 9229 5641 6838 813e 51c7 0941 aec8 b040
00000060: 416d 3a3e e9e1 4241 f44b 6041 9403 43bc
00000070: bda4 a43e d728 c340 d05a 683f 331a d540
00000080: 0ab2 2f41 db70 083e 7048 943f 6ad0 bd40
00000090: 3b35 b640 a229 2940 1ba0 0340 74d1 1241
000000a0: 935b 1f3e 0208 0840 033e 9040 3f48 6d40
000000b0: af89 073e 81db 3440 aa05 4a41 527f 2340
000000c0: 2c69 4441 b92d 1b3e 25ac 4941 a95f fc40
000000d0: 64dd 3e3e ab05 b73f 2413 0940 2f6e d73d
000000e0: 340a 0d40 5cb8 d53f 659f ea40 c207 3d41
000000f0: 0733 113d 5e6f ef40 ec15 f340 58dd d63f
00000100: 48ba eb40 dadb ba3d 504e 8a3f 5bd1 2041
00000110: 3053 273c 3f48 0340 6b2b ad3d 06db 1941
00000120: 139f 2740 e96a 1a3e 1d82 1c41 1c45 3240
00000130: ad07 0a40 387a 4340 e43e 8a3f 9471 483d
00000140: fef7 0e41 d8a3 8c41 e673 f43f fd60 3b41
00000150: 6c7e 1141 123f 7c3e 4013 7f40 16b4 1b41
00000160: 14f0 d540 1ea9 3540 4755 2d40 9e8e 1441
00000170: f07e 983f 3132 f03f 2e34 c93f abe4 3340
00000180: 4490 1e3e 3156 2f41 ba31 1141 06da 063c
0.1085908 5.804123 2.6324282 5.125309 0.098981135 6.270034 0.06748077 1.8096452
11.726159 11.138755 2.207575 1.6094017 2.0115044 0.24460824 8.428667 1.40317
2.1694372 1.9063165 7.0119395 2.689025 13.385149 0.25238347 8.611161 5.524497
0.1820574 12.180154 14.018543 -0.011902709 0.32156935 6.0987353 0.9076357 6.659448
10.980967 0.13324301 1.1584606 5.931691 5.693998 2.643166 2.056647 9.176136
0.15562277 2.1254888 4.50757 3.7075346 0.13236116 2.8258975 12.626383 2.554646
12.275677 0.1515416 12.604527 7.8866773 0.18639141 1.4298605 2.1417933 0.10519063
2.2037477 1.6696887 7.3319573 11.814394 0.035449054 7.4823446 7.596426 1.6786299
7.3664894 0.091239646 1.0805149 10.051112 0.010212705 2.0512846 0.08455547 9.6159725
2.6190841 0.15079845 9.781766 2.785468 2.1567185 3.0543346 1.0800443 0.04893644
8.935545 17.580002 1.9097869 11.711179 9.093365 0.24633434 3.98555 9.731466
6.6855564 2.838447 2.70833 9.284819 1.1913738 1.8765317 1.5719049 2.8108318
0.1548472 10.958543 9.07464 0.008230692

emb_layer1.1.bias f4 [100]
00000000: ba28 b1bf 08af 00c0 e891 c4c0 deaf b7bf
00000010: 61c5 7cbf a448 933d 9a03 4abf 6050 67c0
00000020: 20ab e7be 8f1f 33c0 3992 abbf 0564 1c40
00000030: 6e93 61c0 6694 2dc0 70a4 f6be fe4f 85be
00000040: a51c 95bf e78e 2fbf d3f1 293f 7f85 96be
00000050: 6679 a73f 3071 20c0 c856 edbf cee4 9f3f
00000060: 9afe eabf bd5d 01c0 9535 afbf 22c8 52bf
00000070: 0d82 9fbe c5d7 02c0 3c8e 8c3e aa59 0440
00000080: abdd 0bc0 ebd6 dfbf 5291 0abf c257 fbbf
00000090: d263 9a40 0009 81c0 648b e03f 4c4f ba3f
000000a0: 7dea c7bf 87e2 97c0 ecdc 21be 0960 713f
000000b0: ea91 bdbf bdaa 87be 5f7d c9be 9fe7 55c0
000000c0: 3106 b8bf d134 cebf ae4a b43f 7a74 75bf
000000d0: 2627 1ec0 709b 5dc0 c650 b9c0 aa05 87bf
000000e0: 2bcf 69c0 0d28 0040 3dce bfbf 91be 53be
000000f0: 350e a6bf 8583 e9bf 7d5a cc3e b48c 98bf
00000100: 309f 8ebf 49ae 88bf cae1 b33f 6df7 a13e
00000110: 0b62 13bf 1eb4 3fbf fb22 8bbf cdb0 e3bb
00000120: 7ab9 98c0 31e8 0ac0 50d9 0fbf b652 bcc0
00000130: 83e2 95c0 be3e 86bf 7fa5 123f b5e1 acbf
00000140: ead3 74c0 d849 7fbf d638 b73e 260e 67bf
00000150: 53e9 c83e 6565 52c0 f0a0 b5bf 6dd4 f0be
00000160: 7e5e 7440 0b6b d7c0 9406 f9be 1699 a0bf
00000170: 52a6 0ebf 85d3 22bf 11d8 62c0 53c8 d0bf
00000180: ef75 f2bf 4dd5 77bf 04c2 fe3e 66c1 83be
-1.3840554 -2.010683 -6.142811 -1.4350545 -0.98738676 0.071915895 -0.78911746 -3.6142807
-0.45247746 -2.7988012 -1.3403999 2.4436047 -3.5246234 -2.7121825 -0.4817233 -0.26037592
-1.1649367 -0.68577427 0.6638462 -0.29398724 1.3083923 -2.5069084 -1.8542109 1.2491701
-1.8358948 -2.0213463 -1.3688227 -0.8233663 -0.31153908 -2.0444195 0.27452266 2.0679727
-2.1854045 -1.7487463 -0.5412799 -1.9636157 4.824685 -4.0323486 1.7542539 1.455545
-1.5618435 -4.7464023 -0.15806931 0.94287163 -1.4810154 -0.2649745 -0.39353463 -3.342262
-1.437689 -1.6109868 1.408529 -0.95880854 -2.4711394 -3.4626122 -5.79111 -1.0548604
-3.6532695 2.0024445 -1.4984814 -0.20678164 -1.2973086 -1.8243262 0.39912787 -1.1917939
-1.114233 -1.0678188 1.405328 0.31634083 -0.57571477 -0.7488421 -1.087005 -0.0069485665
-4.772641 -2.1704218 -0.5619097 -5.8850965 -4.6839004 -1.0487897 0.57283777 -1.350638
-3.8254342 -0.9972205 0.3578555 -0.90255964 0.39240512 -3.2874386 -1.4189739 -0.47037068
3.8182673 -6.731817 -0.4863783 -1.2546718 -0.55722535 -0.63604003 -3.5444376 -1.6311134
-1.894224 -0.96809846 0.49757397 -0.2573349

emb_layer1.1.running_mean f4 [100]
00000000: 8b4d 2b40 2deb f0be cbe9 aec0 aee3 b0bf
00000010: 4dc5 40be a68d 7fc0 7355 3340 92c5 93c0
00000020: 1d0a 0b3e 4810 2fc0 5ec4 9abf 8611 0341
00000030: 3c7d 81c0 04f5 00c0 c5fe aebf 3f60 4540
00000040: cb3f 64c0 5dda 4c40 3585 c1c0 a05d cdc0
00000050: 815c e2bf 6a3e a7bf cf27 2240 fbdc 5dc0
00000060: ea9b 9e3e d787 e03f f17d aa3f ce5c 7240
00000070: 27bc 5ac0 5a04 0040 43df 4140 c89b d4c0
00000080: 5061 18c0 af3b 15c0 7fbb 8f3e d7f5 ae3f
00000090: 683c 0f40 5c45 c2bf 7cf6 3ec0 0803 023c
000000a0: 8efd c43f bdaf 14c0 f588 b93c cb04 d3bf
000000b0: cf9a 973f 3885 06c0 2267 8fc0 6a09 0fbf
000000c0: 4f05 62be 07a1 64bf 172a ce3e f496 d93f
000000d0: 385a 23c0 1af0 08c0 88f9 f8bf 9bba a9bf
000000e0: fada 4b3f 249f 183f 7625 25bf 0a7e 67bf
000000f0: afef 01c0 775a ec3e 4bfc 78c0 59ce c83f
00000100: 0d4b d93d 8438 8f3f c0c1 32c1 8abf 4ebf
00000110: 28ff 433f 9434 5a3e 21a6 50bf 2d2b b3c0
00000120: 78aa 6e3f e0ce 04c0 4b87 9ac0 115e 36c0
00000130: 9eac ccc0 6b07 c3bf 552a 2740 1bbb 7fbc
00000140: e83e 2d3f c372 08bf faa4 abc0 6e7e 13c0
00000150: 8159 cebf 0eae 2040 25c3 b0c0 8cdb 4cbf
00000160: 3b26 6b40 34d6 10c0 55f0 5f40 8047 e0be
00000170: 03c9 203f afb1 9340 57a5 7bc0 9058 b0c0
00000180: 424f 9a3f a34c 863e 2940 13c0 c797 b5be
2.6766078 -0.47054425 -5.466039 -1.3819482 -0.18825264 -3.9930205 2.8020904 -4.6178675
0.13578077 -2.7353687 -1.2091177 8.191778 -4.0465374 -2.0149546 -1.36715 3.0839994
-3.5663936 3.2008278 -6.0475106 -6.417679 -1.768448 -1.3065922 2.5336797 -3.4666126
0.30978328 1.7541455 1.3319684 3.7869143 -3.417734 2.0002656 3.0292518 -6.6440163
-2.3809395 -2.3317678 0.28072736 1.3668774 2.238062 -1.5177417 -2.9837942 0.007935293
1.5389879 -2.3232262 0.022648314 -1.6485838 1.1844119 -2.101881 -4.4813395 -0.5587374
-0.22072338 -0.8930821 0.40266487 1.6999192 -2.5523815 -2.1396546 -1.9451151 -1.3260072
0.79631007 0.5961783 -0.64510286 -0.90426695 -2.0302541 0.4616277 -3.8903987 1.5687972
0.10610018 1.1189122 -11.172302 -0.80761015 0.7656121 0.2130912 -0.8150349 -5.5990205
0.93228865 -2.0751266 -4.8290153 -2.8494914 -6.3960714 -1.5236639 2.6119587 -0.015608574
0.6767411 -0.5330011 -5.3638887 -2.3045917 -1.6121064 2.5106235 -5.5238214 -0.800225
3.6742084 -2.263074 3.4990437 -0.4380455 0.6280672 4.61544 -3.9319665 -5.510811
1.2055438 0.26230344 -2.300791 -0.3546736

emb_layer1.1.running_var f4 [100]
00000000: d9bd 8544 2e03 fc43 9b3d f744 f1b8 8b42
00000010: fca5 6c43 6b76 8e42 722b cf43 5d5d db44
00000020: 5e42 3a42 aba6 8642 3353 b344 9274 b543
00000030: 9cda 1045 a599 2c43 bf41 df43 8d01 9d44
00000040: 82d2 f644 07d7 0545 2839 7f42 fd8b ac44
00000050: a191 7942 2f13 1243 3d45 9442 417a 6742
00000060: f08b 3d43 d626 b742 1c30 7e42 64a0 2544
00000070: 0752 d843 8b06 2d44 e36a b944 f987 7d42
00000080: 4ee5 7b42 e5fd 8142 023b 8044 881d 4243
00000090: 19bb f542 9ab6 db44 d218 7344 10dc 5f42
000000a0: 0d50 a243 d84d dc44 605b 8242 1c42 d942
000000b0: d071 7144 daf3 d144 7726 9042 321f ce44
000000c0: c96c 7342 79c7 4843 fab6 5842 3dc4 6f42
000000d0: 2667 2f43 a004 de44 aaa0 cf44 0dc9 0543
000000e0: aa08 bb44 02b4 7c44 da5c 6e42 930f 5242
000000f0: 42af 6943 0557 a042 23ab 8542 5637 5344
00000100: 98c1 8e42 2112 d543 4b4f 6d43 cd8b 3d42
00000110: 3091 5f44 6b46 9f44 33b7 4643 417e 8142
00000120: 3b93 b144 6ef5 3243 209e 6542 c5d3 e244
00000130: 28ba 0845 7ab2 8344 3e87 9d44 401c 7041
00000140: e2d4 4042 37c0 7f42 14ec f744 78dc 7c42
00000150: 46d0 8d42 bb4c 9043 f3c7 f344 608b 8842
00000160: 1bb1 a142 73ba 0b45 3f8b d344 20cc 1243
00000170: f66b b744 e49e 0245 2874 cc44 5d83 ba44
00000180: 8538 7d44 7f1f 4a42 592c 8042 5dcc 3340
1069.9327 504.02484 1977.9252 69.86121 236.64838 71.231285 414.33942 1754.9176
46.56481 67.32552 1434.6 362.9107 2317.663 172.60017 446.51364 1256.0485
1974.5784 2141.4392 63.805817 1380.3746 62.392216 146.07494 74.13523 57.86939
189.54663 91.57585 63.54698 662.5061 432.64084 692.10223 1483.3402 63.382786
62.97393 64.99589 1025.844 194.11536 122.865425 1757.7063 972.3878 55.964905
324.6254 1762.4326 65.17847 108.62912 965.7783 1679.6204 72.07513 1648.9749
60.856236 200.77919 54.178688 59.94164 175.40292 1776.1445 1661.0208 133.78535
1496.2708 1010.8126 59.590675 52.51521 233.6846 80.16996 66.83425 844.8646
71.37811 426.14163 237.30974 47.386524 894.26855 1274.2006 198.71562 64.74659
1420.601 178.95871 57.40442 1814.6178 2187.6348 1053.5774 1260.2263 15.006897
48.207893 63.93771 1983.3774 63.2153 70.906784 288.59946 1950.2484 68.27222
80.84591 2235.653 1692.3514 146.79736 1467.3738 2089.9307 1635.6299 1492.1051
1012.8831 50.530758 64.08662 2.8093483

emb_layer2.0.weight f4 [100, 100]
00000000: c3de 42c0 e0b9 36c0 c076 4041 0cd1 1f40
00000010: 01e5 16bf 5591 1a3f d006 85c0 2eaa a040
00000020: aa75 b7bf cab1 3040 1722 93c0 8c04 23c0
00000030: f8bd 99be 80cf 013f f373 2940 8bb9 fe3e
00000040: 8448 a7c0 78ae e63e 5857 9e3f 811b 1b40
00000050: 8552 49c0 35bb 19bf 5644 7b40 1084 1c40
00000060: c21f 2dbe 5a5b ab3e 1b85 8340 481e 41c0
00000070: e7f1 1840 bcd5 a8be 056b 78c0 7495 f13f
00000080: 3d14 7740 6b44 c5be a424 813f 3231 8bbf
00000090: c516 51c0 b041 dd40 0f77 d2bf 08cc b1be
000000a0: 59b1 90bf 7088 a8bf a037 85be 6dfb bd3f
000000b0: 69e5 ffbf 54be 2240 e74e c03f 18bf 9040
000000c0: 447a f93f 5c66 b3bf 3fd8 61c0 a59e 08c0
000000d0: 9f92 87bf 80c4 52c0 9933 31c0 13cb 27c0
000000e0: f793 eebf 3f60 9abf c517 0d40 a797 4740
000000f0: 024c 0ec0 211d ca3f cf59 1c3f 15df 7dbf
00000100: 6911 9b3f a397 00c0 c6bc 993e e351 e7bf
00000110: 7948 1bc0 875b 91c0 6086 c6bf cb6e 1540
00000120: 3a7e 41c0 92c5 8ebf bc89 c13f b2a4 3841
00000130: 56de 9240 d799 63bf 14a5 82c0 b07f 6abf
00000140: a125 89bf 18b3 f33f 41f4 0c40 575c bf3f
00000150: df8e 66bf 6c7d 00bf d975 2d3e 45e1 b23f
00000160: f7ad 6bc0 1918 4541 ef4c 153e 5184 3340
00000170: 7c59 02c0 c38f cc3f 4389 ea40 0991 5ac0
00000180: 80e2 66c0 f5f1 0840 a363 8040 8519 083e
00000190: eb4a 693f a58e c83e 7e29 873d f3cd 5dbe
000001a0: 49ab 9f3d 35c6 9b3d 98f5 3c3f 070c 2a3e
000001b0: 0254 0dbd 5469 f43e 5abe 383f fca6 a9be
000001c0: 75de e53e c273 163f 1701 31be 24ab 3e3e
000001d0: 8f54 0b3f 008e 563e dfec 713e 9c26 2cbe
000001e0: e4d9 213f 1826 2f3f aabe b0bd ecc0 eb3d
000001f0: 7b64 7f3f 29b3 9d3e 9b29 f2bd b022 7c3f
00000200: da48 813e da00 6c3d a85b 193f 0be4 e03d
00000210: fa94 2c3f d190 363f 2165 2cbf 9863 cb3e
00000220: 928e ef3e aa1a 073e b30f 8b3f 8465 0b3f
00000230: 65b7 ab3e d884 f63c b07d 153e db4f e43e
00000240: f45a b63f 545c 573e 0baf cd3b df48 48be
00000250: f4be 203e 307d 013f 6214 4e3f ab01 97be
00000260: 42a1 0e3f 584e c43e e172 083f d1e3 cbbb
00000270: 6503 7e3f 2a07 1c3f 3230 45bc ebe5 5b3e
00000280: 85e6 f63e efa2 32bf 4cb0 c83e 4643 863e
00000290: 723d ec3e f72e 2f3f e3bd ea3e 3eea 20be
000002a0: 3d86 5f3f 3068 5d3e beee 9f3e c3db e33e
000002b0: 241f c2be c1d4 ab3e 9e38 c73e 0aec 6e3f
000002c0: 0f33 7b3e 5705 8abe a37d 6c3e 3c60 2e3f
000002d0: 12e9 023e f850 2b3f 3555 f8be ae22 cc3e
000002e0: 325f 003f e157 943f 8a3a 25be e312 a2be
000002f0: de00 0e3f 2841 103d f60c e43e 9c04 943d
00000300: 24bb 3e3e 2f03 ca3e 1da7 dc3e 2af6 433f
00000310: 1be6 893f 82d7 5f3e 1a0e a93e 64d4 c63e
00000320: e173 b0bf d213 a93e 28f2 8940 8d11 6bc0
00000330: da60 a9bf bab4 41c0 bb71 133f 0168 ce3f
00000340: 48c6 1d3f 5e24 f9be e1c1 b73f 3fcb 56bf
00000350: 8415 1440 8aa6 2340 8ace 29c0 227a afbf
00000360: 9f87 0640 445c a9be 9114 67bf 989f 913e
00000370: 683b 86bf cbb7 ad3f 3e65 15c0 6db6 8cbe
00000380: bd3f c33f f1fe 8c3e 128a d4be e81e 023f
00000390: 07cc 8f3e 7713 31be e97b c03f 8d40 cdbe
000003a0: b8b2 0bbf 37d2 223f f70e 41bf ef22 2cbe
000003b0: 3ba4 47bf 520a e9be 9e6b 1a3e df07 49c0
000003c0: d880 83bf 3e0e ea3f 4fd2 77bf 1666 b93e
000003d0: 39e8 0abf d5d4 283f b636 23bf 2e6d 933d
000003e0: 6ecc f03d a663 fe3f 497b 3e3e 1226 1abe
000003f0: 151e 9c3f 9e00 493f fcf9 16be ce44 c03f
-3.0448463 -2.855095 12.028992 2.4971342 -0.5894318 0.6037801 -4.1570816 5.020774
-1.4332783 2.7608514 -4.5979114 -2.5471525 -0.30027747 0.50707245 2.647702 0.49750933
-5.227602 0.45054984 1.2370405 2.4235537 -3.1456616 -0.6005128 3.926046 2.4455605
-0.16906646 0.33468133 4.109998 -3.0174732 2.3897645 -0.32975566 -3.881532 1.8873734
3.8606102 -0.3852876 1.0089307 -1.0874388 -3.2670147 6.9142685 -1.6442584 -0.34725976
-1.1304122 -1.3166637 -0.26019 1.4842354 -1.9991885 2.5428667 1.5024079 4.523327
1.9490438 -1.4015613 -3.5288236 -2.134683 -1.059162 -3.2932434 -2.7687743 -2.6217697
-1.8638905 -1.2060622 2.2045758 3.1186311 -2.2233891 1.579014 0.6107454 -0.9916852
1.2114688 -2.0092552 0.30026835 -1.8071865 -2.4262984 -4.542423 -1.5509758 2.3348873
-3.0233293 -1.1154044 1.5120158 11.540209 4.5896406 -0.88906616 -4.082651 -0.91601086
-1.0714608 1.903903 2.202408 1.4950055 -0.90061754 -0.5019138 0.16939487 1.3974997
-3.682493 12.318383 0.14580129 2.804951 -2.0367117 1.5981373 7.3292556 -3.4151022
-3.6075745 2.139768 4.0121627 0.13290985 0.9112994 0.3917133 0.06599711 -0.21660595
0.07796342 0.07606164 0.73812246 0.1660615 -0.034503944 0.4773661 0.72165453 -0.3313521
0.44896284 0.5877038 -0.17285572 0.18619972 0.544259 0.20952606 0.23625515 -0.16811603
0.632231 0.684175 -0.08630116 0.11511406 0.99762696 0.3080075 -0.11824342 0.9849043
0.25250894 0.057618 0.5990548 0.10980996 0.6741482 0.7131472 -0.6734181 0.39724422
0.4678846 0.13193765 1.0864166 0.54451776 0.33538356 0.030092642 0.14598727 0.44592175
1.4246507 0.21031314 0.0062769703 -0.19559048 0.15697843 0.50581646 0.8049985 -0.2949346
0.5571481 0.38341022 0.5330029 -0.006222226 0.9922393 0.6094843 -0.012035416 0.21474425
0.48222747 -0.69779867 0.39197004 0.262232 0.4614063 0.6843104 0.45847997 -0.15714356
0.87314206 0.21621776 0.31236833 0.44503602 -0.37914383 0.33560756 0.38910383 0.9332892
0.24531196 -0.269572 0.23094802 0.6811559 0.12784222 0.66920424 -0.48502508 0.39870209
0.50145257 1.1589319 -0.16135612 -0.31655034 0.55470073 0.035218388 0.44541138 0.07227442
0.18626076 0.39455554 0.43096247 0.7654749 1.0773348 0.21859553 0.3301857 0.38833916
-1.3785363 0.33022934 4.31081 -3.6729462 -1.3232682 -3.0266557 0.57595414 1.612549
0.6163068 -0.48660558 1.4356042 -0.8390388 2.3138132 2.5570397 -2.6532311 -1.3709147
2.1020277 -0.33078206 -0.90265757 0.28442073 -1.0486879 1.3571714 -2.3343043 -0.2748293
1.5253826 0.27538255 -0.4151159 0.5082841 0.28085348 -0.17292581 1.5037814 -0.4008831
-0.5456958 0.6360201 -0.7541346 -0.16810201 -0.7798497 -0.45515686 0.15080115 -3.1411054
-1.0273695 1.8285596 -0.9680528 0.36210698 -0.54260594 0.65949756 -0.6375536 0.07198559
0.11757742 1.987416 0.18601717 -0.15053585 1.219668 0.78516567 -0.14743799 1.5020998

emb_layer2.0.bias f4 [100]
00000000: 2106 1f3d 7fe6 0dbd 750b 1dbf 078f 3bbd
00000010: 0c6a f4bd 53a1 323d 2856 dd3c 5c2e 24c0
00000020: 19ee a339 9829 1c3d 8a60 aabe 5df4 c73c
00000030: e849 16be 7c1b 5abd 75a3 d9be 7110 27bf
00000040: 6096 85be 5596 0cbf 3b52 a2bf cf5a 59be
00000050: 003a 19bc fd83 84be 69ae a73d 82de 07be
00000060: 80cd 923c 159d 25bd 9c9c 0ac0 4987 a5bd
00000070: b5a5 07be eac8 83bd 8f43 713e 96eb 9abd
00000080: 7c74 8abf 41c8 833d f17c 253d 9598 cdbd
00000090: 8747 54be e576 b1be d777 38bd d0ad 9f3d
000000a0: 2a63 a9be efab ef3c 2d9d a43e 72de 32be
000000b0: 143f 7f3c ab21 91be 8716 11bd 5813 55be
000000c0: 52c9 6abc e0bd 303c 56bf adbe 02d8 d13d
000000d0: e78c b63d 39fc cbbe 9158 abbe bf9a 3b3d
000000e0: 8245 dd3d bdb8 81bd 03de 0f3e 1b1e e1bd
000000f0: 94d4 6fbf c99d f5bd 67fd a7bd bc82 8fbf
00000100: f949 92be ca5b 74be c549 543d b1ab 0fc0
00000110: eb6b 88be c9c5 18bd e782 7ebc 8558 28bd
00000120: 8ca6 cdbd 5f9c 76bc 59a2 933d 4795 553d
00000130: 3c20 ffbd a003 18be 5c37 26c0 7fa2 39bf
00000140: f298 65bc f50c 32be 8189 b4be 4213 f8bd
00000150: 35c1 3abe 1a66 87bd 1f27 163e 7461 8fbe
00000160: 67d4 4d3d 6805 cb3b b239 b0be e2d0 713d
00000170: 9227 5ebe c825 eb3d c19e 06be 8522 44be
00000180: 7937 bfbd 0fa2 86bd 2793 88bd 854a 66be
0.038824204 -0.034643646 -0.6134561 -0.0457907 -0.11934289 0.043610882 0.027018622 -2.5653296
0.0003126718 0.038125604 -0.33276778 0.024408514 -0.1467663 -0.053248867 -0.4250752 -0.6525946
-0.2609129 -0.5491689 -1.2681345 -0.21226047 -0.009352207 -0.2588195 0.08187563 -0.13268474
0.017920256 -0.04043301 -2.1658087 -0.08082444 -0.13246806 -0.06434806 0.23560928 -0.07564466
-1.0816798 0.0643468 0.040402357 -0.10038868 -0.2073041 -0.34661022 -0.045036163 0.07796824
-0.3308347 0.029256789 0.32151166 -0.17467669 0.015579004 -0.28346 -0.035421874 -0.2080816
-0.014330225 0.010787457 -0.3393504 0.10246278 0.08913594 -0.39840868 -0.33466008 0.045801874
0.10804273 -0.06334064 0.14049534 -0.1099207 -0.93683743 -0.11992986 -0.082026295 -1.1211772
-0.28572062 -0.2386314 0.051828165 -2.2448542 -0.26644835 -0.037297998 -0.015534139 -0.041100044
-0.10041532 -0.01505193 0.072087 0.052144315 -0.1245732 -0.14845133 -2.5971289 -0.72513574
-0.014013516 -0.17387755 -0.35261157 -0.12113048 -0.18237765 -0.06611271 0.14663361 -0.28004038
0.05025139 0.006195713 -0.34419018 0.059037097 -0.21694782 0.114818156 -0.13146497 -0.19153793
-0.093367524 -0.06573879 -0.06668692 -0.22489364

emb_layer2.1.weight f4 [100]
00000000: 4271 223e 8896 d53d 964b 5f3d ded0 753c
00000010: 866c 2d3e 8e1b 8b3e 1a8c 753d a49d bf3f
00000020: 71bc 4b3e 7fcc 563d 0d09 863d 7948 c53d
00000030: 9d33 363e 5ad8 4d3d 8360 683f 7d2b 893d
00000040: 8139 933f b344 953f 2628 e63f 0a95 903e
00000050: eb6c 973d c42b a03e ee46 9c3d 5e0f 683e
00000060: 04ca 203e 7e21 b43d 1e82 9f3f fb1d 5e3e
00000070: 660c 6b3f 1307 fe3d 8aa4 823e ab1c e23d
00000080: 8f6f c83f 4827 bf3d dcfc b73d e0da e93d
00000090: 343b 4b3e bef6 9f3d a88a 163e 1373 893e
000000a0: 65fb 7e3f 6eaa 223e dc9e c63f dbb8 6a3e
000000b0: d9b1 2b3e 7b44 783f 46ae 0d3e bfbd 543f
000000c0: e846 3b3e 2bb8 113e 1867 8e3d b363 7e3d
000000d0: 16c6 a83d 7160 663f 8649 633f 871c 213e
000000e0: 481e 17bc 7f51 003e 228b 543e 6f90 233e
000000f0: 4e1f e63d 4f1c b63d 0e44 9b3d b07f bd3f
00000100: ba16 163e 3d6e 073e 9af4 703d 2c6f 933f
00000110: 9da5 e93d 055e e83d 4cca 573e 96b3 fb3d
00000120: 8fc5 f03d 0cf6 053e 46e1 523e 5035 f93b
00000130: f5bb 5b3f d4f4 573e 711b d93f f076 0a3e
00000140: 3ef3 373e efea 5f3e 8b1b 373f f02a 393e
00000150: 4d12 153e 1393 973e 6472 573d 109c 303f
00000160: 5f86 2c3e 9ba1 2b3d 053c 293e bf36 5a3e
00000170: 669a 3f3d 4b81 113e 8983 5f3f fd78 373e
00000180: fe84 7b3e 3158 fb3d 175e 1d3e 61ed 973e
0.15863517 0.10429102 0.054515444 0.015003411 0.1693593 0.2716946 0.059948064 1.4969983
0.19896103 0.052441116 0.06544695 0.09632964 0.17793126 0.050255157 0.90772265 0.06697748
1.1501924 1.166159 1.7981002 0.28238708 0.07393821 0.3128339 0.07630716 0.22662112
0.15702063 0.08795451 1.2461584 0.21691124 0.91815794 0.12403693 0.25516158 0.11040624
1.5659045 0.09333664 0.08983776 0.114187 0.19846803 0.07810734 0.1470133 0.26845607
0.9960235 0.15885326 1.551723 0.2292208 0.16767062 0.9697949 0.13836011 0.8310203
0.18288767 0.14230411 0.06953257 0.0621068 0.08240907 0.8999091 0.8878406 0.15733539
-0.009223528 0.12531088 0.207562 0.15973066 0.1123644 0.08892118 0.0758134 1.4804592
0.14657107 0.13225646 0.05882702 1.1518302 0.11408541 0.11346058 0.21073264 0.12290113
0.11756431 0.1308214 0.20593747 0.0076052323 0.85833675 0.21089488 1.69615 0.13521934
0.17963883 0.21866964 0.715264 0.18082786 0.14557762 0.29604396 0.052599326 0.6898813
0.16848134 0.041902166 0.16526802 0.21309946 0.046778105 0.14209478 0.8731008 0.17917247
0.24562451 0.122726806 0.15367924 0.29673293

emb_layer2.1.bias f4 [100]
00000000: c4e2 02c0 c4f2 86bf 7737 7bbf 63f0 69bf
00000010: 465e d9bf ec1c 43c0 4537 53bf 0b06 b5bf
00000020: 6619 0cc0 976b 82bf 09a8 8ebf 2945 aabf
00000030: 43e3 02c0 7417 1cbf 5c5b 34c0 78ef d6bf
00000040: 24fc 36c0 4323 c1bf 0223 b1be ae12 3fc0
00000050: 1941 58bf e150 4ec0 60d5 7cbf 7bb5 32c0
00000060: 6d3a 09c0 a4ff 61bf 03eb d0bd 6c9a 10c0
00000070: 0219 61c0 94a4 b2bf 9dee 25c0 d1c6 a4bf
00000080: b605 34bf 2cee 86bf 78c5 e3bf ab05 acbf
00000090: 5092 35c0 a90b a4bf 1d83 efbf cb78 2fc0
000000a0: 0a0f 4cc0 a655 0ac0 8b3a 89c0 5b31 33c0
000000b0: 764a f4bf dc78 66c0 da4b afbf af68 66c0
000000c0: cd5e ddbf 2d92 50bf 6530 d7bf 8454 55bf
000000d0: f424 55bf 5fe3 51c0 87f7 84c0 91b4 0fc0
000000e0: 3522 80bf 35b2 debf 8160 06c0 b105 47bf
000000f0: b473 adbf 158f abbf ce4a 5cbf cf0a 02c0
00000100: 782e c8bf 2bba c5bf 34c8 40bf 3691 bbbf
00000110: 89f0 ddbf c079 b1bf 9254 17c0 8577 a6bf
00000120: 073c cbbf b3e8 e4bf 02b9 8fbf 7679 55bf
00000130: 2e55 3bc0 4bdc 03c0 25db 9fbf 56ec 07c0
00000140: 0c24 10c0 0949 0bc0 19a5 07c0 4f98 05c0
00000150: f17c c5bf a510 9cbf 30ba 59bf dc47 77c0
00000160: a029 24bf b47d 95bf beee e1bf 6009 cbbf
00000170: e3e5 c1bf b5aa f8bf d378 5dc0 355d eabf
00000180: bb21 3fc0 10db 4fbf 8156 cbbf ea53 47c0
-2.0450907 -1.0542836 -0.9813151 -0.91382426 -1.6981895 -3.0486403 -0.8250621 -1.4142469
-2.1890502 -1.0189084 -1.114503 -1.3302356 -2.045121 -0.60973287 -2.8180761 -1.679183
-2.8591394 -1.5088886 -0.3459702 -2.985515 -0.8447433 -3.2236865 -0.98763084 -2.7923267
-2.144191 -0.882807 -0.10201075 -2.2594252 -3.5171514 -1.3956475 -2.5926888 -1.2873174
-0.70321214 -1.0541434 -1.7794638 -1.343923 -2.8370552 -1.2816058 -1.8711888 -2.7417476
-3.188418 -2.1614776 -4.2883964 -2.7998874 -1.9085224 -3.6011267 -1.3695023 -3.6001394
-1.7294556 -0.81473047 -1.6811644 -0.83332086 -0.8325951 -3.2795026 -4.1552157 -2.245396
-1.0010439 -1.7398134 -2.0996401 -0.7774306 -1.3550935 -1.340304 -0.8605164 -2.0319097
-1.5639181 -1.5447439 -0.75305486 -1.465369 -1.733903 -1.386528 -2.3645368 -1.3005224
-1.5877694 -1.7883514 -1.1228335 -0.8338846 -2.927074 -2.0603206 -1.2488753 -2.1237998
-2.2522001 -2.1763327 -2.1194518 -2.0874212 -1.5428754 -1.219258 -0.85049725 -3.863761
-0.64126015 -1.1678987 -1.7650983 -1.5862236 -1.5148281 -1.9427096 -3.4604995 -1.8309695
-2.9864337 -0.8119364 -1.5885774 -3.1144967

emb_layer2.1.running_mean f4 [100]
00000000: 928c 9a42 357c 2142 8598 bac2 739b 64c2
00000010: 7013 a4c0 c83b 0fc2 1a4c ea41 5058 85c3
00000020: 60b3 b8c2 add1 efc1 4a71 e640 2772 2fc2
00000030: 32fe c8c1 a2f4 d041 fe97 dc41 3b7c d342
00000040: 31eb 17c2 88d5 89c2 9b07 b6c2 b853 d2c1
00000050: 399a a541 2b8f 41c2 5373 13c2 24ca 87c1
00000060: c651 aac2 c8f9 0942 4b71 b4c2 5d88 d3c1
00000070: fdf9 8bc2 2c0a 6542 992f aa42 25a1 20c2
00000080: 4db7 41c2 997a a641 2a14 56c2 6b1d b042
00000090: 28e3 eac1 3a07 9cc2 4ace cbc2 083f a341
000000a0: f5bb 75c2 0d62 ecc1 22dc 5642 b573 51c2
000000b0: cfa5 90c2 c2ab 0fc1 a41d aebd 1a48 a0c2
000000c0: dc19 aec2 6e9a f0c1 00d7 fb40 4af0 7f41
000000d0: 7766 ac41 8099 b2c0 b263 aac2 8be3 a741
000000e0: 6df8 1342 03fd e4c2 e4e7 6a42 e6cd 42c2
000000f0: 5e66 1742 c428 6a42 168d 3f41 54b8 e6c2
00000100: 32df bd41 f367 bac2 44b1 b441 0e82 0dc3
00000110: fe57 5d42 719d 1dc1 761c 8ac2 8129 af41
00000120: 4dba dc41 6362 e642 53ef 32c2 9226 e0c1
00000130: 1f9d 7fc2 6b68 3cc1 c8f6 5bc3 2afb 4842
00000140: 3d1f a6c1 0824 a941 97d0 27c2 e63c 28c2
00000150: 08b3 59c2 75eb c2c2 5ffa df41 9b64 a7c2
00000160: 1d5c ccc1 641c 4bc1 113b 9bc1 5458 d5c2
00000170: ee7f 86c1 79b6 c1c2 50cb f9c1 28a8 3641
00000180: 0262 adc0 ef1a 20c2 b85a 4cc2 f3f4 12c1
77.27455 40.371296 -93.29789 -57.151806 -5.1273727 -35.80838 29.287159 -266.68994
-92.35034 -29.97738 7.201329 -43.861477 -25.124119 26.11945 27.574215 105.74264
-37.97968 -68.91705 -91.014854 -26.290878 20.700304 -48.389812 -36.86262 -16.973701
-85.15971 34.493927 -90.221275 -26.441584 -69.98826 57.259933 85.092964 -40.157368
-48.429005 20.809862 -53.51969 88.05746 -29.360916 -78.014114 -101.90291 20.405777
-61.43355 -29.547876 53.714973 -52.362995 -72.323845 -8.979433 -0.08501747 -80.14082
-87.05051 -30.075405 7.869995 15.996164 21.550032 -5.581238 -85.19472 20.986105
36.992603 -114.49416 58.726456 -48.701073 37.849968 58.53981 11.971945 -115.360016
23.733982 -93.203026 22.586555 -141.50803 55.33593 -9.850938 -69.05559 21.895266
27.590967 115.19216 -44.733715 -28.018833 -63.90344 -11.775493 -219.96399 50.245277
-20.765253 21.142593 -41.9537 -42.05947 -54.424835 -97.45988 27.997252 -83.696495
-25.544977 -12.694431 -19.403841 -106.672516 -16.812466 -96.85639 -31.224274 11.416054
-5.418214 -40.026302 -51.088593 -9.184802

emb_layer2.1.running_var f4 [100]
00000000: 2a40 5347 fb95 b844 d2b1 8446 5ed8 3745
00000010: 53c4 a545 ad1d ec46 3217 2a44 f1c0 9547
00000020: 299a a046 8322 ae45 22e1 db46 bd9f 0146
00000030: a111 7146 909a cf44 1b63 d246 83de f046
00000040: fe9c 5c47 21f3 6c47 9a10 1847 79cb 4d46
00000050: 8c97 4f46 bf47 cd46 bb68 2845 20c7 1146
00000060: 2518 8546 68c8 3244 ccf7 f946 cf9f 4146
00000070: afbe 5247 1918 2746 e7db 3046 23f9 8b45
00000080: de4a 9746 27bf 9744 0b0c 8446 e530 e445
00000090: 7e87 e545 9fc0 a046 e11e ab46 33c1 8144
000000a0: 0155 2047 99ef 4f46 e6a7 0446 1001 ab46
000000b0: a240 4746 2e2a 0247 cc06 3046 3f25 7c47
000000c0: ddb3 5046 9727 1e44 81ac 3a45 86f4 d644
000000d0: ff1d 9144 3ccc 0447 8d5d cf46 8178 f645
000000e0: 09e4 af44 c222 a646 0a0c 3447 68ab 2f45
000000f0: c1ed 8045 b194 0445 dce6 2247 1d4d 8447
00000100: 6c5b 9846 d68e 8946 b756 7c44 9188 4647
00000110: c9dd ce46 5b20 cd45 7fef 8f46 4289 e145
00000120: cc0d cc46 c15b 7046 f0da ec44 2000 1c44
00000130: 7dfa 1e47 67b9 2b46 9e4f 5147 0d7f cc46
00000140: 4007 6b46 714e 2b46 ef75 d146 bd60 df45
00000150: 13cc d446 df71 a945 1c29 0145 c469 6a47
00000160: a0f3 0444 4a1b ba45 23aa 1a46 3ecd 4046
00000170: 95cb 9246 958f ac46 04a7 1347 f19f a146
00000180: 35d1 9746 7956 c044 51f9 c846 31d9 d946
54080.164 1476.6869 16984.91 2941.523 5304.5405 30222.838 680.3624 76673.88
20557.08 5572.314 28144.566 8295.935 15428.407 1660.8301 26929.553 30831.256
56476.992 60659.13 38928.6 13170.868 13285.887 26275.873 2694.5457 9329.781
17036.072 715.13135 31995.898 12391.952 53950.684 10694.024 11318.976 4479.142
19365.434 1213.9735 16902.021 7302.112 7344.9365 20576.31 21903.44 1038.0375
41045.004 13307.899 8489.975 21888.531 12752.158 33322.18 11265.699 64549.246
13356.966 632.6186 2986.7815 1719.6414 1160.9374 33996.234 26542.775 7887.063
1407.1261 21265.379 46092.04 2810.713 4125.719 2121.2932 41702.86 67738.23
19501.71 17607.418 1009.3549 50824.566 26478.893 6564.0444 18423.748 7217.157
26118.898 15382.938 1894.8418 624.00195 40698.49 10990.351 53583.617 26175.525
15041.8125 10963.61 26810.967 7148.0923 27238.037 5422.234 2066.5693 60009.766
531.80664 5955.411 9898.534 12339.311 18789.791 22087.791 37799.016 20687.97
19432.604 1538.7023 25724.658 27884.596

classifier1.0.weight f4 [100, 100]
00000000: 3c5f 8bbd de2d 30bd e38b ba3c 3137 05be
00000010: d61e 9dbd c917 f53c e842 69bc 0a99 85bd
00000020: 8518 32bd f2c7 a2bd 7698 85bd 75d6 85bd
00000030: 716b 20be a08b d83c 633d 053d 2ffd 1c3d
00000040: 6f49 4d3b fab3 1abd e8a6 59bd 4aa4 92bd
00000050: d2e9 523d a710 4f3d 655c 213d b267 46bc
00000060: 8caf 81bc 9c0a fb3c ad52 833c 14c7 2abd
00000070: bc2d e7bc 9b9f 92bc 297a cebd 4266 98bd
00000080: 02d5 b2bd e7a8 c2bd a742 603d da4a 3bbd
00000090: 1050 11bd 8c01 11bd 7fb2 babd f12e d8bd
000000a0: 3277 6bbc 8194 49bd 08a8 b8bc 961e 853d
000000b0: 6431 f2ba 4a08 86bd c31c 0fbd 29db 59bc
000000c0: 30f7 143d e6cb 79bd 226d c7bd d1b9 163d
000000d0: a059 d4bd 33e3 9dbd be3b d23d 8110 823b
000000e0: ec00 efbd 3cf1 203d b2f1 eebd 74d3 b3bd
000000f0: 2d50 92bd 7b2f 013d 2ca0 84bd b302 81bd
00000100: 5620 4abd dcac 85bd 4b5c 0cbd 5abc 09bd
00000110: 618b 723c 55f7 1bb8 cf5a 1bbd 01ee 603c
00000120: 447b a4bd 2e66 04bd a842 12be 1e4c 15bd
00000130: fc17 c6bd 5607 993c 3b6c 5bbd d5c7 3bbd
00000140: 24d5 0ebd 5a98 33bd cad5 2ebd 2178 4bbd
00000150: 335f 84bd f732 abbc 6802 e9bd 5977 07be
00000160: 64a2 2abc d032 123d b322 223c dc6e 5bbd
00000170: deb7 b8bd a49e 093d 2510 8b3c b3f9 89bd
00000180: 049d 9d3d 5fae b7bd 5fe5 94bd 439e 4cbd
00000190: c7ec 36be a640 c4bd 7aad 11bd 0484 88bd
000001a0: c358 22bd 30c1 60bd 9c68 97bd 85b9 3cbe
000001b0: aeba 93bd ab98 85bd 9305 19be 13de c3bd
000001c0: 1878 22be eeb0 c3bc 8865 1cbe a5ec 32be
000001d0: 832e f5bd f51d 0cbe 3d84 29bc 7a06 c53a
000001e0: 8b8f 43bd d358 21bd 663b 35bc 347e cfb9
000001f0: 8d8e c2bd a562 20be 66ba 89bd 0013 18bd
00000200: 9aab 2fbd 158f 9abc c930 1a3c 944f 19be
00000210: 0f28 83bb 1980 28be 197f 73bd d776 6bbc
00000220: 5832 10be 0a6d 07be c680 a8bc 779b 0bbe
00000230: 977c 25bd 3e6c c3bc 3f3d 0cbe 58e8 a9bd
00000240: 76d4 f2bd a96d f7bc 6636 03be 23f4 2abe
00000250: 60ca 14be 5d0d 21be 358f a1bd 08ac 13be
00000260: 36bb a1bd 9b0d 3cbe 990c 3fbd 8674 1ebd
00000270: 2451 dcbd 8b4f 83bd b14a 10bd 2cd7 44be
00000280: fc2e 02bb 1343 1f3c 26a1 3bbd 5ea3 3ebd
00000290: d572 fcbc 3067 c9bd 4b4d 9bbd b20b 25be
000002a0: e6cb b1bc 7b48 35be 99f4 2fbe 2b0e 16be
000002b0: febd 00bd 9dbc 45be caeb babd f95d 37be
000002c0: 35e1 a2bd d8b1 83bb a0d5 02be bdab fcb9
000002d0: 503c fabc d904 9cbc c0f9 2fbc 775d a13a
000002e0: c5bb 8abd 3483 3dbd e788 20bd 0d53 1fbe
000002f0: 8b62 c3bd fc90 c1bd 20dd acbd 1054 1cbe
00000300: 1a72 00be c635 80bc d8d5 a6bd e399 05be
00000310: 24ce 98bd b792 d7bd fb99 923b ab47 a9bc
00000320: 5348 85bd fa52 55bd da2b e3bd 5fce d5bc
00000330: 4873 c2bd f807 923d eafb 82bc a822 04be
00000340: bd49 40be b5b8 fbbd 3910 6b3c 7e5f 25bd
00000350: 5489 e6bd 91ab b9bc 92c0 973d 5bad 0abe
00000360: 2d4f 0cbd ef4e 3f3d 2371 cfbd b1d8 26be
00000370: 3dbb dabd 3de8 033d 421c 20bd 90bb c73d
00000380: d790 27be 7693 3cbe b330 5fbd b0e9 b3bc
00000390: 00f0 0fbe de6c f8bd 25c9 7cbc 9f90 36be
000003a0: c88b 93bd 1f8e 1fbd ceba a9bd 1de7 4bbc
000003b0: d3d6 b63d 2b84 34be a521 5cbd 6b84 29be
000003c0: 80cd ffbc 3f5b b9bd 8835 4abe 5e27 54bb
000003d0: 74ea 26be ceaf f6bd 47b2 0dbe def9 d6bd
000003e0: ce8c 77bd 63f2 a43d 53c2 fabc 1400 f2bc
000003f0: 8104 c7bd 45c5 b3bd cd53 303d 9765 4ebd
-0.06805274 -0.043012492 0.022771781 -0.13009335 -0.07671897 0.029918568 -0.014237143 -0.065233305
-0.043480415 -0.07948293 -0.0652322 -0.06535045 -0.15665986 0.026433766 0.032529246 0.038327392
0.0031324287 -0.037769295 -0.05313769 -0.07160242 0.05149252 0.05055299 0.039394755 -0.012109684
-0.015830778 0.030644707 0.016030634 -0.041693762 -0.02822005 -0.017898371 -0.10081894 -0.07441379
-0.08732034 -0.09504872 0.054751065 -0.04572568 -0.035476744 -0.035401866 -0.09116077 -0.10555828
-0.01437168 -0.04921389 -0.022541061 0.064999744 -0.0018477854 -0.0654455 -0.03493954 -0.013296881
0.03636855 -0.06098547 -0.09737612 0.036798302 -0.10368657 -0.077093504 0.10265301 0.0039692526
-0.11670098 0.03929256 -0.116671935 -0.08780566 -0.071441986 0.03153942 -0.06475863 -0.06299343
-0.049347244 -0.06527111 -0.034267705 -0.03362689 0.014803738 -3.7185226e-05 -0.0379284 0.01372862
-0.080313236 -0.03232401 -0.1428324 -0.036449544 -0.096725434 0.018680256 -0.053570013 -0.04584487
-0.034871235 -0.043846466 -0.042684354 -0.04967511 -0.0646347 -0.020898325 -0.11377412 -0.13229121
-0.0104146935 0.03569299 0.009895968 -0.05357252 -0.09019445 0.033598557 0.016975472 -0.067370795
0.07695964 -0.089688055 -0.072703116 -0.049955618 -0.17863761 -0.09582643 -0.03556583 -0.06665805
-0.03963543 -0.054871738 -0.073929995 -0.18430145 -0.07213341 -0.0652326 -0.14943533 -0.09563842
-0.15866125 -0.023888078 -0.15273106 -0.17473085 -0.11971762 -0.13683303 -0.0103464695 0.0015031837
-0.047744315 -0.03939135 -0.011061525 -0.00039576145 -0.09499846 -0.1566263 -0.06725006 -0.037127495
-0.04288826 -0.018867055 0.009411045 -0.14971763 -0.004002578 -0.16455115 -0.05944738 -0.014371595
-0.14081705 -0.13225189 -0.020569216 -0.13633524 -0.04040202 -0.023855325 -0.13695239 -0.08296269
-0.1185693 -0.030203657 -0.1281372 -0.16694693 -0.14530325 -0.15727754 -0.07888643 -0.14421093
-0.07897036 -0.18364565 -0.046642873 -0.038685344 -0.10757664 -0.06411656 -0.03522748 -0.19222707
-0.001986443 0.009720582 -0.04580798 -0.046542518 -0.030816475 -0.098341346 -0.07583102 -0.16117743
-0.021703672 -0.1770343 -0.1718315 -0.14653842 -0.03143119 -0.19310232 -0.091270044 -0.17906941
-0.07953111 -0.0040190034 -0.12776804 -0.0004819314 -0.030546337 -0.01904528 -0.010740697 0.001231118
-0.067740954 -0.046267703 -0.03919306 -0.15559025 -0.0954028 -0.09451482 -0.08440614 -0.15266442
-0.12543526 -0.015650641 -0.08146256 -0.13046984 -0.07461193 -0.105260305 0.0044739223 -0.020664057
-0.065079354 -0.052081086 -0.110923484 -0.026099382 -0.094946444 0.07130426 -0.015989263 -0.12903845
-0.18778129 -0.122910894 0.0143471295 -0.04037427 -0.11256662 -0.022664817 0.07409777 -0.13542692
-0.034255195 0.046706136 -0.10129001 -0.16293599 -0.10680244 0.0322039 -0.03908945 0.097525716
-0.16363846 -0.18415627 -0.054489803 -0.021962017 -0.14056396 -0.1213014 -0.015428816 -0.17828606
-0.072043955 -0.038953897 -0.08287583 -0.012445238 0.08927693 -0.17628543 -0.053743023 -0.1655442
-0.03122592 -0.09050607 -0.19746983 -0.0032372097 -0.16300374 -0.12045251 -0.13837539 -0.10496877
-0.060437016 0.08054044 -0.03061024 -0.029541053 -0.09717656 -0.087778606 0.04304867 -0.050389852

classifier1.0.bias f4 [100]
00000000: 0fed 0ebe 7d60 98bd 930c e1bd 745d afbd
00000010: aae8 2abd 09c3 43c0 079f adbf f47e 7fc0
00000020: ee63 70c0 cbba 11be 66f9 c5bd ef61 1abd
00000030: 0bf6 b8bd 2f9d 9abf 3211 78be 65cc dfbb
00000040: b5dd 7ebe c99d 37be d45d a3bd c939 98bd
00000050: a712 fcbf b528 97bd 2c7b 85bd cc29 bbbd
00000060: 9a61 29be 2d5f 86bd c184 17be de80 02be
00000070: d16a a6bd dce7 06be 9442 81bb 018e 1ebe
00000080: 394e 11be fd96 71c0 e72a 79bd a3ba 40bd
00000090: b4af 4dbd bd3c 29bf 6f86 0ebe 312b f3bf
000000a0: e5bf b1bd 1aa6 36c0 4db9 2ebd f993 1ebe
000000b0: 930c e2bf b909 8fbb cacb 8cc0 6386 a9bd
000000c0: 58da 63bd c0ed afbe 0bb4 91be 493a 8bbd
000000d0: 3e04 1abe 50dc 21be c9ab 9ebd ec6a 32be
000000e0: 5911 dfbd 0383 2dbd 4ec2 c3bd 4a75 8dbe
000000f0: dd48 1ebe ae2f 2cbe 24ab afbe b33e 2fbd
00000100: de32 cdbd 3a9e 6cbe aed1 30be 0dbc 12be
00000110: 7a26 48bc 133d d7bd 0747 88bd 501a babd
00000120: d7d9 70bd b46c 1bbd d7ca 4cbe 2a11 01be
00000130: 8299 64c0 6a3b 32bf 67b1 8abe 860d b4bd
00000140: b211 93bd ca4d f6bd 76d9 a0bd 671b f1bd
00000150: e538 4dbe 71b3 edbd 3d4e df3e 1034 1ebe
00000160: 7ad6 bebd 3945 43be 5575 00c0 7215 85bd
00000170: 7943 09be 7887 32bf f578 9ebd d816 e6be
00000180: ef01 c5bc 55f1 07bd 02e7 1bbe c9b2 31be
-0.13957618 -0.07440279 -0.109887265 -0.08562747 -0.041725792 -3.058779 -1.3564156 -3.9921236
-3.7560992 -0.14231412 -0.096667096 -0.037691053 -0.09031304 -1.2079219 -0.2422531 -0.0068297856
-0.24889262 -0.17931284 -0.07976881 -0.07432897 -1.9693192 -0.07380811 -0.06517634 -0.091388315
-0.16541138 -0.06561122 -0.14796735 -0.12744471 -0.08125842 -0.13174385 -0.0039447043 -0.15483858
-0.14189996 -3.7748406 -0.06083193 -0.04705299 -0.05021639 -0.66108304 -0.1391847 -1.8997556
-0.08679179 -2.853888 -0.042657185 -0.15486135 -1.7660087 -0.0043651727 -4.3998766 -0.08277585
-0.05562815 -0.34361076 -0.28457674 -0.067982264 -0.15040681 -0.15806699 -0.07747609 -0.174236
-0.10891981 -0.04236127 -0.09558545 -0.27628547 -0.15457483 -0.16815063 -0.34310257 -0.042784404
-0.10019468 -0.23107234 -0.17267486 -0.14329548 -0.012216205 -0.10509696 -0.066541724 -0.0908705
-0.0588015 -0.037945464 -0.19999252 -0.12604204 -3.5718694 -0.6962191 -0.27088472 -0.08791642
-0.071811095 -0.12026556 -0.078539774 -0.11772805 -0.20041235 -0.11606491 0.4361438 -0.15449548
-0.09318252 -0.19069375 -2.0071614 -0.06498231 -0.13404645 -0.6973796 -0.077379145 -0.44939303
-0.024048774 -0.033189137 -0.15224841 -0.17353357

classifier2.0.weight f4 [100, 100]
00000000: 58a4 c0bd d670 1dbd 70cd 99bd 57f5 45be
00000010: f0c1 9ebd d363 1940 d29d 7fbd 9e24 37be
00000020: d893 d3be 50ce b8bd 3b9d dabd 0b67 93bd
00000030: f3ad 963c fd01 1cbf 3b37 b7bc 8d5e 4fbd
00000040: 6797 303d 2541 af3d 10d9 12be 0ac6 233d
00000050: 236f 25bf d539 b83d 6738 4cbc 85bd d0bd
00000060: bac4 e23c 22ac f2bd 030d 5fbd 2063 953c
00000070: abff 983d 7a00 7c3d 0af2 a93d 831c 493d
00000080: cde6 a53d 7ccb d73e 8d6e 643c f55b 0abe
00000090: 8a68 be3d 6b09 39bd b3e1 21bd 1a38 f3be
000000a0: 9a49 37b9 d306 353f 7a52 d73c 1bd5 39be
000000b0: 0ef5 1fbf 9a90 7dbb b3dd 28bf c39d ae3d
000000c0: fa8b 83bd 3ad1 e3bd 3dfd dabb 4382 5abd
000000d0: 6a79 08bd e7e5 13bc 0db8 363c 1aeb dd3b
000000e0: f35f 743d 2098 4abd a7ed a7bc 1fd0 4ebd
000000f0: a7e4 6bbd 7752 c93d 3bdc b3bd f2ef 44be
00000100: 2db1 a9bd c793 183d 0753 8bbc 6d3f 22bd
00000110: 1a3f 373c 07a4 cabd a320 173d 075b bd3d
00000120: d22f 81bd e77b 8bbb 87bc 57bd a3bf a1bd
00000130: 672b 71bf 46d7 afbe 599f c63e 0c92 593d
00000140: 9a53 aebc 879c 7bbd c500 9ebd db9d 88bd
00000150: 0c5f 7a3d add5 81bc 9788 36be 7038 833b
00000160: b3f2 2b3c 0014 8c3b 7a86 8abe 6abf 18ba
00000170: 9cd1 31bd 6232 dd3d f318 a5bc 48bb 2bbb
00000180: 806c b83b 1a9e 3abc 1d0b 80bd 2db5 c13d
00000190: 6ad8 063d 2979 fb3c cd1e 313b 7799 cc3b
000001a0: 4728 b13c 2f8e 1c3f eb75 bf3e 5114 06c0
000001b0: 3d0d 1fbf 8c91 ddb9 912c 4e3d 6773 573e
000001c0: 5da4 603d 9192 08c0 2739 263c 46a8 0b3d
000001d0: aed6 21be 4581 c7bd c388 803e 67fa 1f3d
000001e0: 5185 7d3e f0cf 17be c15b c1bd 109b 3e3e
000001f0: 1121 a5be f92d 5e3d 4f73 583d d0fc d63d
00000200: 00a7 783d c69b c43d 54fc 813c 8445 a43d
00000210: 36ae 373c 9ae5 1240 e14f fa3d 5937 ba3d
00000220: a3f2 183e a3bd 81bf b1d6 55bd 9269 2abe
00000230: 133e 85bd 907f 0f40 fccd 233e d6e3 933d
00000240: e50d 29bf 6c57 5ebd d9cf bdbf b397 40bd
00000250: cd5b 23bb 9508 d6be 5244 c5bf 1a80 df3d
00000260: 1a33 a1bc 27b0 c2bd f005 0e3d 0da8 7e3d
00000270: cb01 163e 63ba bb3c 7de3 5dbd f220 18bd
00000280: 944f 01be fe89 f0bd a533 f33e c617 8e3e
00000290: df82 0e3e 1ca9 39bc 2edf 283e 7099 a73d
000002a0: 3618 183e 1260 613e 6c0d 273e 44e4 593d
000002b0: faf7 223e 93b1 e43d cdbf 62bd 1278 3b3e
000002c0: baa7 2cbf 8cc8 b0bf 83f7 b13d 28ca edbc
000002d0: 7a28 a9bc be21 a9bd 8557 cbbd 27ae 593c
000002e0: 6d9f 0fbe ddd3 723d ef93 2cbf 0492 a53d
000002f0: 1b96 d53d 217e d83b c72c 70be e50b 2e3e
00000300: 39dd 2bbc 80db 053f 27be c8bc eb1f 41bf
00000310: 4eec e73d 0459 ee3c 7aa7 403d b333 26bd
00000320: d6be 463d be1d 3d3c 80aa 9c3b f298 803d
00000330: 6af3 be3d 79c4 a5be ad48 e03f ca0a 78be
00000340: de99 0cbb 4e53 aebd 06c6 4abd 84b5 693d
00000350: 2d28 ae3d 0d9f 0dbe 7374 82bb 948f 803c
00000360: 21dd ae3e c0ac aa3c 9ba2 233e 17ef dc3c
00000370: da01 683e 8d81 c4bc 6d73 be3d a140 023e
00000380: cfdd 96bb df8c 87bb 38cf 193e 467b 143e
00000390: b9e7 753d a0e0 973c cdb4 123b 5867 b43d
000003a0: fd7b a13c eedb eabe 4556 b03d a28f 17bc
000003b0: 38d8 54bd 0f73 523f 77d7 cbbd 20e3 403f
000003c0: a884 1cbe 7491 153f f7b2 093d d0cb c8bc
000003d0: 06dd a4be f651 17be 410a cc3e a7ab dabc
000003e0: cd0c 413d 9bcd 8bbd a5cf fbbd ca57 5d3c
000003f0: e5d2 2abd afab 063e d3d6 2b3d 4bfc aebd
-0.09406346 -0.038437687 -0.07509887 -0.19331871 -0.077518344 2.3967178 -0.06240637 -0.17885062
-0.41323733 -0.09023726 -0.106745206 -0.07197388 0.018393492 -0.60940534 -0.022365203 -0.05062728
0.04311314 0.08557347 -0.14340615 0.039983787 -0.64622706 0.089954056 -0.012464619 -0.10192398
0.027681697 -0.11849238 -0.05445577 0.018235743 0.0747064 0.061523892 0.082981184 0.049099457
0.081006624 0.42147434 0.013942373 -0.13511641 0.09297283 -0.045174997 -0.039521884 -0.4750374
-0.00017479659 0.7071354 0.026284445 -0.181477 -0.624833 -0.0038690926 -0.65963286 0.085261844
-0.06423183 -0.11123891 -0.0066830204 -0.053346884 -0.033318914 -0.009026981 0.01115228 0.006772411
0.059661817 -0.049461484 -0.020499064 -0.05049145 -0.057591107 0.09830182 -0.0878224 -0.19232157
-0.08285747 0.037250306 -0.017007364 -0.03961127 0.011184478 -0.09894567 0.03689636 0.09245878
-0.06307949 -0.0042567137 -0.052670028 -0.0789788 -0.9420685 -0.34343928 0.38793448 0.053117797
-0.021280099 -0.061428573 -0.077149905 -0.066707335 0.0611258 -0.015848959 -0.17825542 0.0040045306
0.010494876 0.004274845 -0.27055722 -0.0005826863 -0.04341279 0.108006254 -0.020153498 -0.0026204158
0.0056281686 -0.011390233 -0.0625212 0.09458385 0.032921232 0.030697422 0.0027026415 0.0062438804
0.021625651 0.61154455 0.37394652 -2.09499 -0.62129575 -0.00042260846 0.05033547 0.21040116
0.05484425 -2.1339457 0.010145462 0.034096025 -0.1580455 -0.09741453 0.2510434 0.03905716
0.24757887 -0.14825416 -0.09441329 0.18613839 -0.3225179 0.05424306 0.05284434 0.10497439
0.06070614 0.09600024 0.01586739 0.080210716 0.011210969 2.2952638 0.12222267 0.09092588
0.14936309 -1.0135998 -0.0522067 -0.16641834 -0.0650598 2.2421608 0.15996546 0.07221191
-0.66036826 -0.05428259 -1.4829055 -0.04701967 -0.0024926544 -0.41803423 -1.5411475 0.10913105
-0.019677687 -0.09506255 0.03467363 0.062171984 0.14649121 0.022916025 -0.054172028 -0.037140794
-0.12628013 -0.1174507 0.4750034 0.27752513 0.13917111 -0.011331823 0.16491386 0.08183563
0.14852986 0.22009304 0.16313714 0.053196207 0.15914908 0.11166682 -0.055358697 0.18307522
-0.6744343 -1.3811202 0.08689787 -0.02902706 -0.020649184 -0.08258389 -0.099288024 0.01328615
-0.1402566 0.05928408 -0.6741323 0.08084491 0.10429021 0.0066068326 -0.23454581 0.16996725
-0.010489755 0.52288055 -0.024504734 -0.7543933 0.113243684 0.02909518 0.047034718 -0.040576648
0.04852184 0.011542736 0.0047810674 0.06279172 0.09323771 -0.3237646 1.7522179 -0.24222866
-0.0021454017 -0.08511983 -0.049505256 0.057057872 0.08503757 -0.13830204 -0.003981167 0.015693463
0.34153083 0.020834327 0.15979998 0.026969476 0.22656956 -0.023987556 0.092993595 0.12719966
-0.0046040784 -0.004136666 0.15020454 0.1450015 0.06003544 0.018539727 0.0022385598 0.08808774
0.019712443 -0.45870918 0.086102046 -0.009250553 -0.051964015 0.82206815 -0.09953206 0.75346565
-0.1528498 0.5842507 0.03361794 -0.024511248 -0.32199878 -0.1477736 0.39851573 -0.026693178
0.04713135 -0.068263255 -0.122954644 0.0135097 -0.04170503 0.1315143 0.04195292 -0.08544215
