results/NCC_classifier_best.pt (torch, 132521 bytes, 18 tensors)

emb_layer1.0.weight f4 [100, 2]
0.6313265 0.88705516 3.1208854 1.1898801 -11.802812 -0.34520936 -52.549553 1.8581663
-2.985049 3.0950181 79.457924 -3.5931284 45.879078 -4.7761703 1.3410113 -6.943324
-2.5761158 3.3137512 5.1484337 5.1329503 5.0500107 -4.7474637 -5.2678194 -7.9562716
2.919218 4.075147 -4.182695 4.6437674 3.3792212 -3.6685762 40.712822 -4.3042045
-57.988445 0.1464806 -2.6782258 13.36039 -2.2778993 24.076988 7.0445647 0.07229617
38.420902 -3.2811823 -69.0462 1.5025985 -3.4582002 0.5086066 2.8627996 -6.693845
-4.491034 0.20404623 -0.5139342 0.55102134 -2.9687946 -2.9924588 2.4013226 4.068255
-4.320511 0.05610016 2.2746458 3.2991102 -5.0677795 8.713057 -1.449844 -3.736182
-2.796716 12.334022 4.106033 -7.097124 3.0357566 10.044823 -0.84028566 -10.762516
4.5587006 5.544943 38.373093 -2.931874 -2.6108444 4.395521 10.113726 10.955717
-1.4717282 10.771652 -86.620895 -0.9483914 5.4997683 4.920755 -0.20754103 2.8517776
5.0144463 -4.4571753 -53.171326 -0.89384234 4.771695 -2.315164 -3.9443002 -2.1681445
4.6164546 3.7309275 2.2229424 4.492684 1.7859166 4.339327 1.8384445 4.519563
3.398651 -2.9032316 -3.4960103 -3.0960963 0.20432414 -0.36636233 -0.2574069 -7.648979
-84.86277 0.98859966 -4.840632 -4.898523 14.971494 0.5501586 -13.626529 -1.9644763
2.132432 4.2315273 -11.563438 -1.0420613 -6.1284113 0.5500791 1.6774944 4.3829126
-2.6787655 -4.08873 0.9594797 0.40830222 1.6162006 5.5124736 2.6664267 4.1816287
3.658055 -0.5671739 -0.6657659 9.277222 -5.312774 -0.70274067 0.98312026 -16.078304
-0.56830317 0.2913844 -3.9860718 0.15875477 -7.8692465 -50.05892 0.87928104 -10.672762
-13.278131 0.11992391 0.3736764 -0.17240533 5.108267 0.31517768 8.121612 -62.232468
-8.151052 -27.363201 9.379886 12.562976 2.9962926 -3.768257 7.959758 -0.23940809
71.114426 -4.2332983 7.2883153 -0.8117636 -2.7674582 3.776165 9.330584 -0.31943977
-3.5980709 -3.672292 -2.2902834 -7.7372017 -9.052115 -0.03239214 -28.100183 -5.0476108
-4.066458 11.938766 -5.681886 -5.417225 -1.1416565 -10.276965 -10.86431 -0.10716451
-2.0869117 -4.008399 -0.06390592 12.583264 -0.08514276 -4.8556137 -7.875043 8.650646
00000000: 9d9e 213f 0c16 633f 96bc 4740 fe4d 983f
00000010: 51d8 3cc1 48bf b0be be32 52c2 65d8 ed3f
00000020: 0b0b 3fc0 c714 4640 75ea 9e42 d1f5 65c0
00000030: 2d84 3742 63d6 98c0 42a6 ab3f b62f dec0
00000040: 15df 24c0 8014 5440 f8bf a440 2141 a440
00000050: b099 a140 39eb 97c0 fa91 a8c0 c799 fec0
00000060: 78d4 3a40 9b67 8240 a3d8 85c0 be99 9440
00000070: 2945 5840 f4c9 6ac0 eed9 2242 0bbc 89c0
00000080: 2bf4 67c2 03ff 153e 0d68 2bc0 28c4 5541
00000090: 1ac9 11c0 ac9d c041 136d e140 0410 943d
000000a0: 01af 1942 e4fe 51c0 a817 8ac2 2655 c03f
000000b0: 2753 5dc0 0b34 023f 1c38 3740 fa33 d6c0
000000c0: 8db6 8fc0 7ff1 503e 3191 03bf bc0f 0d3f
000000d0: bb00 3ec0 7284 3fc0 45af 1940 252f 8240
000000e0: a041 8ac0 48c9 653d cc93 1140 9f24 5340
000000f0: 402b a2c0 ae68 0b41 7d94 b9bf 9b1d 6fc0
00000100: 65fd 32c0 2758 4541 9f64 8340 a41b e3c0
00000110: d649 4240 98b7 2041 f61c 57bf 4433 2cc1
00000120: e0e0 9140 2c70 b140 0c7e 1942 d3a3 3bc0
00000130: 1318 27c0 1ca8 8c40 d2d1 2141 9e4a 2f41
00000140: 9761 bcbf b058 2c41 e63d adc2 c7c9 72bf
00000150: 1afe af40 d376 9d40 a385 54be 8683 3640
00000160: 5876 a040 2ea1 8ec0 70af 54c2 dad2 64bf
00000170: bab1 9840 a62b 14c0 6a6f 7cc0 e1c2 0ac0
00000180: ffb9 9340 84c7 6e40 b044 0e40 11c4 8f40
00000190: ea98 e43f c4db 8a40 2652 eb3f 43a0 9040
000001a0: 7f83 5940 8cce 39c0 a2be 5fc0 7126 46c0
000001b0: 593a 513e d893 bbbe d6ca 83be 70c4 f4c0
000001c0: bdb9 a9c2 de14 7d3f 75e6 9ac0 b3c0 9cc0
000001d0: 3d8b 6f41 32d7 0c3f 4306 5ac1 f673 fbbf
000001e0: c479 0840 ac68 8740 d803 39c1 4462 85bf
000001f0: f21b c4c0 fcd1 0c3f 23b8 d63f d240 8c40
00000200: e570 2bc0 e0d6 82c0 76a0 753f fd0c d13e
00000210: a9df ce3f 2f66 b040 bca6 2a40 e7cf 8540
00000220: 931d 6a40 4f32 11bf a26f 2abf 806f 1441
00000230: 3f02 aac0 d0e6 33bf c5ad 7b3f 5ea0 80c1
00000240: 517c 11bf 5630 953e cd1b 7fc0 9c90 223e
00000250: ded0 fbc0 563c 48c2 9018 613f a2c3 2ac1
00000260: 3973 54c1 ab9a f53d 8352 bf3e 068b 30be
00000270: ec76 a340 f85e a13e 1ff2 0141 0cee 78c2
00000280: b66a 02c1 d6e7 dac1 0314 1641 f301 4941
00000290: 42c3 3f40 1f2b 71c0 56b6 fe40 6527 75be
000002a0: 963a 8e42 2e77 87c0 e139 e940 bdcf 4fbf
000002b0: 091e 31c0 b0ac 7140 124a 1541 9c8d a3be
000002c0: cb46 66c0 d506 6bc0 0194 12c0 2897 f7c0
000002d0: 77d5 10c1 9fad 04bd 2dcd e0c1 0786 a1c0
000002e0: 6d20 82c0 2f05 3f41 03d2 b5c0 e859 adc0
000002f0: cd21 92bf 736e 24c1 37d4 2dc1 1179 dbbd
00000300: f68f 05c0 ce44 80c0 1be1 82bd 0d55 4941
00000310: 545f aebd 3061 9bc0 5a00 fcc0 0c69 0a41

emb_layer1.0.bias f4 [100]
0.33711925 0.23840855 -2.1830034 -4.268064 10.863213 -0.33942455 4.304669 0.18025465
0.61307406 1.6832901 -8.144061 -17.636742 -8.71775 -5.4852304 -1.1236877 -1.3118142
10.698851 5.9045258 -2.6232295 -1.098204 -5.4123654 3.27157 -0.14047883 0.85606885
-0.4672167 0.21075955 5.51218 -2.0711846 1.3797935 -7.1540036 -4.548509 -4.7775183
-1.865126 -2.6047904 -0.6334815 -0.5860272 0.4112462 -3.5254784 -6.2439423 0.6312825
1.4098054 10.049626 8.568306 -1.035569 1.427241 -8.501673 -3.6048594 -1.3128172
1.6301277 1.1145884 -2.5617628 7.121246 7.6835766 -4.6567802 0.05456699 -2.539744
-0.6659898 -6.35882 -5.8236976 -2.0022109 -5.0887513 1.839142 0.66945 -10.612717
1.3129117 0.27353087 -9.381566 1.384202 -0.97879773 -8.104948 -2.6433299 -0.5108005
0.69667965 -0.910181 2.9787588 -2.1323538 4.028012 0.07688017 0.80128855 -5.182419
6.3476734 -6.668736 -4.5216913 1.5453675 2.9747128 -0.96085453 -4.1742673 1.9349797
5.04377 -3.8331242 1.105546 -5.2542386 -1.9854252 -8.023425 -8.551727 0.21758263
0.5873783 4.737378 -1.6043518 -5.2060304
00000000: e59a ac3e 5f21 743e 54b6 0bc0 fb93 88c0
00000010: b8cf 2d41 0ec9 adbe d9bf 8940 ad94 383e
00000020: 6cf2 1c3f 0d76 d73f 134e 02c1 0c18 8dc1
00000030: e77b 0bc1 0287 afc0 00d5 8fbf 87e9 a7bf
00000040: 7e2e 2b41 e0f1 bc40 fee2 27c0 f391 8cbf
00000050: 1932 adc0 6761 5140 afd9 0fbe 5427 5b3f
00000060: 0737 efbe 5ad1 573e c763 b040 4a8e 04c0
00000070: 139d b03f 99ed e4c0 638d 91c0 6ee1 98c0
00000080: 73bc eebf e3b4 26c0 d82b 22bf e105 16bf
00000090: dd8e d23e 70a1 61c0 60ce c7c0 bb9b 213f
000000a0: 8174 b43f 45cb 2041 c817 0941 868d 84bf
000000b0: d5af b63f da06 08c1 04b6 66c0 650a a8bf
000000c0: 06a8 d03f d5aa 8e3f ecf3 23c0 3fe1 e340
000000d0: dcdf f540 5804 95c0 a381 5f3d 2a8b 22c0
000000e0: 4f7e 2abf 747b cbc0 bb5b bac0 3924 00c0
000000f0: 0dd7 a2c0 0169 eb3f 1361 2b3f b0cd 29c1
00000100: 7e0d a83f 3d0c 8c3e e51a 16c1 882d b13f
00000110: 7d92 7abf dead 01c1 512c 29c0 d2c3 02bf
00000120: 9959 323f 9f01 69bf fca3 3e40 7c78 08c0
00000130: 79e5 8040 5a73 9d3d 3f21 4d3f 60d6 a5c0
00000140: 2420 cb40 4966 d5c0 b2b1 90c0 9ace c53f
00000150: b261 3e40 90fa 75bf 9993 85c0 6aad f73f
00000160: 9066 a140 e851 75c0 8882 8d3f b922 a8c0
00000170: 6a22 febf f35f 00c1 e0d3 08c1 fbcd 5e3e
00000180: 6d5e 163f 9a98 9740 665b cdbf cd97 a6c0

emb_layer1.1.weight f4 [100]
0.14811745 -0.0041353367 0.32309926 11.748498 42.749634 17.324127 32.912754 -0.022693494
49.20022 19.61572 45.960907 21.13834 33.726086 26.133722 57.98657 33.032673
10.508011 11.623871 0.867849 0.41622633 30.449137 23.007282 -0.004036598 -26.470785
0.2641365 0.10101584 53.16076 42.489655 0.26776025 29.894081 22.229963 50.144722
-0.00010794774 36.556892 -0.42948288 0.052093677 19.035475 30.852394 51.81726 10.100431
0.0147677325 21.476898 6.5305505 0.23698847 10.464661 15.916394 41.83677 61.65276
13.23763 41.386917 26.541437 35.678402 52.32866 55.060028 0.1053534 0.46993262
24.298689 0.022920392 0.5402383 36.490047 28.263834 0.5208085 0.008983266 38.238728
47.55241 0.12770578 37.229465 -43.204178 0.17788714 -0.023073124 0.2704093 0.35620734
0.13228047 0.12876987 11.284881 23.0532 0.4400858 0.10327917 0.33991402 11.935101
9.398007 11.269621 51.017815 0.2231654 15.162987 0.16629279 67.46531 0.40537488
65.39798 30.386478 0.45634222 0.1907995 17.109121 41.582443 24.670465 0.24268904
47.890526 -0.01167544 -0.008802878 13.342488
00000000: 1aac 173e b881 87bb 446d a53e d9f9 3b41
00000010: a0ff 2a42 d097 8a41 a9a6 0342 b5e7 b9bc
00000020: 06cd 4442 ffec 9c41 f8d7 3742 521b a941
00000030: 83e7 0642 dd11 d141 3ff2 6742 7521 0442
00000040: d020 2841 60fb 3941 5a2b 5e3f 9e1b d53e
00000050: d597 f341 ea0e b841 7045 84bb 2bc4 d3c1
00000060: e63c 873e 65e1 ce3d 9ea4 5442 68f5 2942
00000070: df17 893e 1427 ef41 f7d6 b141 3294 4842
00000080: 0062 e2b8 423a 1242 2ee5 dbbe 2e60 553d
00000090: a748 9841 b4d1 f641 e044 4f42 5e9b 2141
000000a0: 5cf4 713c b0d0 ab41 45fa d040 1bad 723e
000000b0: 406f 2741 8da9 7e41 da58 2742 6d9c 7642
000000c0: 55cd 5341 348c 2542 dd54 d441 afb6 0e42
000000d0: 8c50 5142 783d 5c42 86c3 d73d 029b f03e
000000e0: b763 c241 8cc3 bb3c 0f4d 0a3f cff5 1142
000000f0: 551c e241 b553 053f 8c2e 133c 75f4 1842
00000100: ab35 3e42 4ec5 023e f9ea 1442 14d1 2cc2
00000110: 0c28 363e d903 bdbc 1673 8a3e cf60 b63e
00000120: 8874 073e 40dc 033e df8e 3441 f46c b841
00000130: ed52 e13e 0884 d33d 3609 ae3e 2cf6 3e41
00000140: 3d5e 1641 5e50 3441 3e12 4c42 7885 643e
00000150: 989b 7241 a848 2a3e 3dee 8642 4c8d cf3e
00000160: c4cb 8242 8217 f341 b0a5 e93e f260 433e
00000170: 7bdf 8841 6c54 2642 1d5d c541 7a83 783e
00000180: e68f 3f42 584a 3fbc f239 10bc d57a 5541

emb_layer1.1.bias f4 [100]
-1.157094 -0.22012284 -1.9024402 -20.695368 8.005374 -42.49257 -2.425245 -0.19315569
15.281603 1.1192013 17.416523 7.596483 11.248935 0.39164418 15.656989 -7.720175
-19.864813 4.949812 -5.2383103 -2.3393998 -5.829863 -49.796898 -0.5119414 7.414093
-1.6157929 -0.70545626 8.198445 8.876596 -2.0103364 6.9940515 3.5350413 11.39799
-0.043491997 15.554864 -2.8557422 -0.53817725 4.9715667 2.283399 13.613873 5.5693455
-0.0936068 -45.838657 5.253129 -1.4593482 -9.086852 -19.004282 12.998023 9.807245
0.4476198 11.3578005 8.577813 12.005216 13.929251 15.014987 -0.68659 -3.2615907
-38.817245 -0.13665332 -3.3218641 -6.293787 8.649687 -3.157376 -0.28060782 13.493297
-1.4885777 -0.9861489 8.28792 -4.4702816 -1.198326 -0.13767663 -1.9087677 -2.2555351
-0.83462757 -0.7727463 -13.699438 24.289865 -2.8663805 -0.64014107 -2.1954033 -32.3967
-9.570324 2.2826705 14.470158 -1.2505333 -37.161297 -0.92716926 48.18804 -2.2623782
16.800997 13.235076 -3.0116303 -1.4332887 8.364141 6.5045986 9.690146 -1.6862985
8.724365 -0.29567274 -0.169675 -0.9252861
00000000: a81b 94bf e267 61be 2983 f3bf 1d90 a5c1
00000010: 0316 0041 64f8 29c2 3737 1bc0 9bca 45be
00000020: 7281 7441 fd41 8f3f 0a55 8b41 6416 f340
00000030: a3fb 3341 9685 c83e 0783 7a41 ac0b f7c0
00000040: 23eb 9ec1 dc64 9e40 3da0 a7c0 bab8 15c0
00000050: 3d8e bac0 0630 47c2 970e 03bf 4040 ed40
00000060: 4dd2 cebf c898 34bf d52c 0341 8a06 0e41
00000070: 5aa9 00c0 45cf df40 1e3e 6240 2b5e 3641
00000080: aa24 32bd b9e0 7841 7bc4 36c0 fcc5 09bf
00000090: 1317 9f40 3623 1240 6cd2 5941 1438 b240
000000a0: ecb4 bfbd c95a 37c2 a219 a840 eccb babf
000000b0: bf63 11c1 c508 98c1 e7f7 4f41 7aea 1c41
000000c0: 6c2e e53e 8db9 3541 b93e 0941 5d15 4041
000000d0: 36de 5e41 633d 7041 5dc4 2fbf e7bd 50c0
000000e0: dc44 1bc2 d9ee 0bbe 6c99 54c0 b466 c9c0
000000f0: 1e65 0a41 7312 4ac0 d4ab 8fbe 8be4 5741
00000100: b789 bebf 4174 7cbf 529b 0441 8c0c 8fc0
00000110: bf62 99bf 1afb 0cbe 8052 f4bf b05a 10c0
00000120: 27aa 55bf b4d2 45bf e630 5bc1 a551 c241
00000130: c772 37c0 49e0 23bf 7d81 0cc0 3996 01c2
00000140: 0c20 19c1 4617 1240 c485 6741 7a11 a0bf
00000150: 2ba5 14c2 f75a 6dbf 8ec0 4042 ceca 10c0
00000160: 7168 8641 dfc2 5341 8dbe 40c0 0176 b7bf
00000170: 86d3 0541 ac25 d040 d70a 1b41 a1d8 d7bf
00000180: 0097 0b41 6b62 97be 48bf 2dbe 8ddf 6cbf

emb_layer1.1.running_mean f4 [100]
0.3187967 0.18020378 -2.0049725 -3.5123875 10.874738 -1.4776375 3.6799603 0.23076792
0.61769027 1.5549501 -8.169396 -17.475163 -8.800311 -5.469931 -1.1356026 -1.8683274
11.555559 5.8086977 -2.8334715 -1.2031075 -5.93499 4.2798443 -0.09449357 0.88148683
-0.40287295 0.21277687 5.585314 -2.1481104 1.4431143 -7.220987 -4.5618873 -4.7182074
-1.948727 -2.5932536 -0.7801378 -0.4645656 0.28796223 -4.062637 -6.250164 0.37037382
1.3224399 11.341995 8.436938 -1.0613917 1.3969113 -7.7086053 -3.6482964 -1.2315265
1.5233943 1.0361838 -2.6320322 7.0477996 7.664196 -4.574457 0.055257205 -2.458445
0.57897866 -6.237612 -6.050661 -1.7795815 -5.163216 2.0206926 0.7545006 -10.681154
1.3939736 0.2552061 -9.461069 1.3018364 -1.027145 -8.189092 -2.557648 -0.3624481
0.7021313 -0.85284543 3.602498 -2.0372345 4.223146 0.07310111 0.72255725 -4.6724424
6.745431 -6.9347878 -4.5272026 1.4300883 1.9660003 -1.0604063 -4.1687837 1.8002408
5.134028 -3.7211425 1.2397319 -4.7875705 -2.0463696 -7.8849497 -8.430663 0.3793237
0.65879047 4.610841 -1.5538999 -5.1789722
00000000: 5239 a33e 5787 383e 7851 00c0 f5ca 60c0
00000010: edfe 2d41 3a23 bdbf 7884 6b40 6d4e 6c3e
00000020: f320 1e3f 9b08 c73f d9b5 02c1 22cd 8bc1
00000030: 13ce 0cc1 ad09 afc0 6d5b 91bf 5a25 efbf
00000040: 92e3 3841 dae0 b940 9957 35c0 6dff 99bf
00000050: 70eb bdc0 7cf4 8840 d885 c1bd 1fa9 613f
00000060: 5d45 cebe 2ee2 593e e4ba b240 a47a 09c0
00000070: f8b7 b83f 5312 e7c0 fbfa 91c0 8efb 96c0
00000080: e36f f9bf def7 25c0 1cb7 47bf 8bdb edbe
00000090: c96f 933e 1f01 82c0 5801 c8c0 a3a1 bd3e
000000a0: b645 a93f d078 3541 b3fd 0641 afdb 87bf
000000b0: fdcd b23f e5ac f6c0 b07d 69c0 a9a2 9dbf
000000c0: 96fe c23f aca1 843f 3773 28c0 9387 e140
000000d0: 1841 f540 f461 92c0 6155 623d 2a57 1dc0
000000e0: f237 143f 849a c7c0 049f c1c0 54c9 e3bf
000000f0: 1139 a5c0 0753 0140 f426 413f 02e6 2ac1
00000100: ba6d b23f 60aa 823e 8a60 17c1 93a2 a63f
00000110: 7d79 83bf 8506 03c1 81b0 23c0 cc92 b9be
00000120: e0be 333f 1454 5abf 548f 6640 0d62 02c0
00000130: 0324 8740 09b6 953d 83f9 383f a684 95c0
00000140: 92da d740 c8e9 ddc0 d8de 90c0 220d b73f
00000150: e6a5 fb3f 65bb 87bf ad66 85c0 4a6e e63f
00000160: f549 a440 3327 6ec0 89af 9e3f c733 99c0
00000170: b8f7 02c0 8251 fcc0 ffe3 06c1 b736 c23e
00000180: 7ea6 283f 028c 9340 31e6 c6bf 24ba a5c0

emb_layer1.1.running_var f4 [100]
4.253411 37.707336 435.34525 8497.864 51.982204 19391.781 6428.1763 156.84816
50.082394 189.16446 134.65593 326.41504 90.230194 110.136475 70.08827 5064.3647
10417.354 581.24097 1879.1194 154.23685 4514.6035 14704.966 36.564438 157.89975
61.950108 1.5983416 63.604942 79.81343 57.68563 57.645245 295.0999 56.59656
497.65472 195.39038 383.6996 389.86703 184.96173 4505.591 75.78635 797.0724
375.84586 23328.617 194.1913 26.406935 126.01039 8806.913 79.47945 70.249504
125.042816 89.40391 77.78991 84.08668 55.903683 77.72923 0.5128487 194.01897
22262.307 169.77856 702.1361 609.06915 79.92689 427.33337 114.81366 77.57003
85.626976 3.7035618 114.8383 88.12697 40.9365 279.49002 91.99308 840.4663
1.1525153 48.845924 8735.471 369.5166 545.3297 0.48085606 82.45331 12542.734
2839.3926 882.6665 65.812416 195.11139 15503.008 162.26117 62.634914 267.89966
94.65709 226.65137 254.22406 2640.698 482.29608 220.26785 360.13602 366.8068
72.77469 519.8072 77.83212 385.7262
00000000: f11b 8840 50d4 1642 31ac d943 75c7 0446
00000010: c7ed 4f42 907f 9746 69e1 c845 21d9 1c43
00000020: 5f54 4842 1a2a 3d43 eba7 0643 2035 a343
00000030: dc75 b442 e045 dc42 322d 8c42 eb42 9e45
00000040: 6ac5 2246 6c4f 1144 d2e3 ea44 a23c 1a43
00000050: d414 8d45 ddc3 6546 fc41 1242 56e6 1d43
00000060: e9cc 7742 7596 cc3f 766b 7e42 7aa0 9f42
00000070: 16be 6642 bb94 6642 ca8c 9343 e162 6242
00000080: ced3 f843 f063 4343 8cd9 bf43 fbee c243
00000090: 34f6 3843 bacc 8c45 9c92 9742 a244 4744
000000a0: 45ec bb43 3c41 b646 f930 4243 6741 d341
000000b0: 5205 fc42 a79b 0946 7af5 9e42 bf7f 8c42
000000c0: ec15 fa42 cdce b242 6f94 9b42 612c a842
000000d0: 5f9d 5f42 5e75 9b42 0d4a 033f db04 4243
000000e0: 9dec ad46 50c7 2943 b688 2f44 6d44 1844
000000f0: 91da 9f42 acaa d543 98a0 e542 db23 9b42
00000100: 0341 ab42 2807 6d40 36ad e542 0241 b042
00000110: fabe 2342 b9be 8b43 75fc b742 d81d 5244
00000120: 9f85 933f 3a62 4342 e27d 0846 20c2 b843
00000130: 1a55 0844 c432 f63e 18e8 a442 f0fa 4346
00000140: 4876 3145 a8aa 5c44 f59f 8342 841c 4343
00000150: 083c 7246 dc42 2243 278a 7a42 28f3 8543
00000160: 6e50 bd42 c0a6 6243 5c39 7e43 2b0b 2545
00000170: e625 f143 9244 5c43 6911 b443 4567 b743
00000180: a48c 9142 a9f3 0144 0caa 9b42 f4dc c043

emb_layer2.0.weight f4 [100, 100]
0.45212087 -0.8720445 0.37018332 0.4283765 1.0435116 0.15862712 -0.8908872 -0.810905
0.5979021 0.19026133 -0.07420293 -0.07165849 0.412159 0.2159049 0.4737506 -0.6509707
-0.2320115 0.43317097 1.37042 -0.28029618 -0.26731 0.10223364 0.76224756 -0.50642645
0.3472908 0.9195317 0.19516096 0.6926228 0.20277886 0.12146338 0.58105534 -0.06618258
0.844139 -0.060265966 0.7717305 -0.08312449 0.49033517 -0.98029953 0.7624188 -0.06562651
0.37207264 -0.39732733 -0.17814897 0.5399417 0.07040795 0.27279642 -0.1785757 0.009242028
-0.044176154 -0.52416825 0.06331213 0.050324686 -0.64415735 -0.18105114 0.013600763 -0.45930552
-0.14938733 0.085083574 -1.1742747 0.19019431 0.8846081 0.43035004 0.25598013 1.2731205
-0.46189237 0.14983706 -0.036632873 -0.94517535 0.20100263 0.2473875 0.19557826 -0.019865481
0.33066574 0.58111435 -1.0347912 0.7867426 0.07584017 -0.20875762 -0.49202323 -0.31013063
0.12107847 -0.9832192 0.32097778 0.063418716 -0.4812719 -0.57374823 0.43801138 0.01885526
-0.5441186 -0.28467622 0.20175982 0.23662686 0.4149927 0.3756812 -0.7670997 -0.045424905
0.51515853 0.6037351 0.08309582 0.7132063 -0.5787157 -0.31761947 1.163602 -0.18106174
0.4902194 -0.52807313 -0.47200844 -0.11622836 -0.31287712 -0.57894313 -0.88889575 0.24134769
-0.52435726 0.8489626 -0.7446409 0.35941544 2.7217472 0.08802906 0.108951874 -0.3421839
0.6105327 1.7993839 -0.2940979 -0.0772411 0.14908007 -0.16312271 0.19592547 -0.26937237
0.3552243 0.08381852 -0.55629873 1.1269728 -0.2902853 -0.7342664 0.046316326 0.73888963
-0.6886148 0.20674358 -0.3876462 0.68650293 -0.3449678 1.9235048 -0.6445036 -0.717987
-0.57093126 0.88167053 -0.0020608362 -0.21496418 -0.059848435 -0.36162284 1.2899936 0.22770697
0.070987284 -0.30355644 0.1906717 -0.6032385 0.9503831 0.65371335 -0.004918957 -0.03145346
0.19037497 -0.02638532 -0.29970753 -0.83280474 0.07398719 0.6969327 -0.51006496 0.05274197
-0.2729981 -0.2827911 0.6387588 0.71295553 -0.7035862 0.7374425 -0.630363 1.0826092
2.0606105 0.34240925 -0.15702114 0.32163188 1.3488071 -0.6456701 -0.080665946 -0.6776119
0.35802275 -0.99101365 -1.0428363 -0.35988387 -0.24691305 0.36155295 0.95249534 0.91120154
-0.07543059 2.661205 -0.57716477 1.2858943 1.3144876 -0.14380096 0.077072404 0.04940173
0.040669285 0.35321665 -0.46191135 0.06635556 -0.39594936 -0.81972694 -0.109609626 -0.7091614
-1.0076393 -1.4409721 -0.9149976 -0.6967603 0.57843566 -0.85983247 -0.14149997 0.18677482
-0.43724945 -1.4612213 0.5305648 0.59911585 0.8164989 -0.4448184 -1.4573725 0.31537002
-0.21929039 0.35948703 -1.3429846 -1.5342208 -1.4778157 0.16322109 0.09842337 -1.10438
0.89742136 0.6662844 -1.4459202 0.23752461 -0.25704232 -0.6810442 -0.7443456 0.8187362
-0.015189245 -1.4400767 0.39671022 -0.3962385 -0.5902587 -1.1067988 -0.3608757 -1.1297628
-0.97781366 -0.5825038 -0.734579 0.19820154 -0.9097317 -0.21132103 0.63835526 0.0438216
00000000: 637c e73e 4f3e 5fbf ab88 bd3e 2a54 db3e
00000010: ca91 853f 266f 223e 2f11 64bf 7897 4fbf
00000020: 1d10 193f ded3 423e b5f7 97bd b0c1 92bd
00000030: 8106 d33e 2d16 5d3e 708f f23e 04a6 26bf
00000040: 6c94 6dbe 96c8 dd3e ec69 af3f fb82 8fbe
00000050: dbdc 88be df5f d13d a822 433f 2aa5 01bf
00000060: 1ad0 b13e 6e66 6b3f 46d8 473e ba4f 313f
00000070: 43a5 4f3e cbc1 f83d 0bc0 143f bc8a 87bd
00000080: 7e19 583f 72d9 76bd 2190 453f 2c3d aabd
00000090: 360d fb3e e9f4 7abf e12d 433f 3167 86bd
000000a0: 4e80 be3e 7d6e cbbe af6c 36be 9f39 0a3f
000000b0: 0b32 903d f9ab 8b3e 8cdc 36be e06b 173c
000000c0: 0ef2 34bd e42f 06bf caa9 813d 4221 4e3d
000000d0: 7fe7 24bf 7865 39be bcd5 5e3c 182a ebbe
000000e0: fef8 18be 4c40 ae3d a24e 96bf 4cc2 423e
000000f0: ad75 623f d756 dc3e d40f 833e 9df5 a23f
00000100: 287d ecbe e36e 193e 5a0c 16bd 03f7 71bf
00000110: a2d3 4d3e 2653 7d3e ab45 483e efbc a2bc
00000120: 054d a93e e9c3 143f 0a74 84bf f767 493f
00000130: 1752 9b3d 8fc4 55be 78ea fbbe 71c9 9ebe
00000140: fdf7 f73d 41b4 7bbf 3357 a43e ace1 813d
00000150: 4569 f6be 2ae1 12bf 0743 e03e 5976 9a3c
00000160: 5b4b 0bbf 15c1 91be 209a 4e3e 504e 723e
00000170: ec79 d43e 4959 c03e a560 44bf 770f 3abd
00000180: 6ee1 033f 628e 1a3f 242e aa3d b094 363f
00000190: b626 14bf 059f a2be e9f0 943f 4068 39be
000001a0: 0afe fa3e cd2f 07bf 17ab f1be 2209 eebd
000001b0: 6e31 a0be 9e35 14bf ac8e 63bf d923 773e
000001c0: 473c 06bf 9d55 593f c9a0 3ebf 4d05 b83e
000001d0: 1b31 2e40 9448 b43d 2922 df3d ba32 afbe
000001e0: df4b 1c3f 3652 e63f 0094 96be 9530 9ebd
000001f0: 72a8 183e a409 27be b0a0 483e 2deb 89be
00000200: f6df b53e 0ba9 ab3d 9869 0ebf a540 903f
00000210: 46a0 94be e2f8 3bbf 30b6 3d3d df27 3d3f
00000220: 0f49 30bf 97b4 533e 9079 c6be a8be 2f3f
00000230: 9f9f b0be 6835 f63f 30fe 24bf ffcd 37bf
00000240: 8d28 12bf 29b5 613f 180f 07bb 921f 5cbe
00000250: a223 75bd a126 b9be 831e a53f 042c 693e
00000260: c861 913d c06b 9bbe 713f 433e d76d 1abf
00000270: 4f4c 733f c259 273f 342f a1bb 58d5 00bd
00000280: a8f1 423e 0726 d8bc 4473 99be b132 55bf
00000290: 9986 973d 2e6a 323f 9e93 02bf f707 583d
000002a0: 68c6 8bbe ffc9 90be b285 233f 4184 363f
000002b0: 3a1e 34bf 08c9 3c3f 785f 21bf f092 8a3f
000002c0: 0be1 0340 4450 af3e 26ca 20be efac a43e
000002d0: b6a5 ac3f a34a 25bf 3034 a5bd f977 2dbf
000002e0: c24e b73e 12b3 7dbf a97b 85bf b342 b8be
000002f0: c6d6 7cbe 781d b93e bcd6 733f 8144 693f
00000300: 5a7b 9abd 2f51 2a40 12c1 13bf 2f98 a43f
00000310: 2141 a83f 8f40 13be 23d8 9d3d 7859 4a3d
00000320: d694 263d d0d8 b43e a57f ecbe 6de5 873d
00000330: e0b9 cabe a0d9 51bf 037b e0bd 9a8b 35bf
00000340: 53fa 80bf c671 b8bf 483d 6abf e25e 32bf
00000350: 5c14 143f fb1d 5cbf 5ee5 10be e641 3f3e
00000360: 29df dfbe 4d09 bbbf 18d3 073f a85f 193f
00000370: 1206 513f 3dbf e3be 2f8b babf 2e78 a13e
00000380: a98d 60be af0e b83e ebe6 abbf 5961 c4bf
00000390: 1129 bdbf 6e23 273e 3192 c93d 535c 8dbf
000003a0: 68bd 653f 9d91 2a3f ea13 b9bf a739 733e
000003b0: 0d9b 83be ea58 2ebf 6f8d 3ebf b298 513f
000003c0: 50dc 78bc 6f54 b8bf 9a1d cb3e c6df cabe
000003d0: 321b 17bf 95ab 8dbf b3c4 b8be 119c 90bf
000003e0: ff51 7abf f81e 15bf 5f0d 3cbf 58f5 4a3e
000003f0: 2de4 68bf 8a64 58be 406b 233f 477e 333d

emb_layer2.0.bias f4 [100]
0.050903324 -0.008003748 -0.011639977 0.06993881 0.10892974 -0.030623179 0.009235252 0.13283043
0.07561687 0.19458956 -0.013813549 -0.04218371 -0.09846597 -0.4225139 -0.053994138 0.021027438
0.11122851 0.029448587 -0.12255964 0.21304367 -0.16252752 0.07435297 -0.088087305 -0.22217469
0.06724638 -0.17057762 -0.04859786 0.085425936 0.07790853 0.04448642 0.20311633 0.044448085
-0.02448991 0.03589725 -0.07111564 0.016007464 -0.078728706 0.36821282 -0.118041724 0.123828486
-0.0545999 0.06742902 -0.049507525 -0.26991975 0.15490559 0.1677416 -0.47319472 0.004955632
0.043495588 0.1317472 -0.077079885 0.10028787 -0.010938555 -0.14032316 0.15320809 0.027444348
0.042646863 0.033220537 0.20640993 0.04062283 -0.040349375 0.21408378 -0.01832934 -0.012730874
-0.010006524 0.028532133 0.15458544 0.15580676 0.043990947 -0.003138021 -0.11556303 -0.048064485
0.071738005 0.030903 0.054473694 0.051187154 -0.03504602 -0.16473839 -0.08381638 0.14293006
-0.015545879 -0.25866398 0.1859869 0.0047348896 0.07666676 -0.016673112 0.10326055 -0.03325905
-0.07442173 -0.04793712 -0.12309127 0.015761817 -0.006092197 -0.12984577 0.0130747715 0.14354798
-0.08322103 0.05081821 -0.06741112 0.15571105
00000000: 0180 503d 2722 03bc 9ab5 3ebc 143c 8f3d
00000010: 8e16 df3d 76dd fabc 744f 173c b304 083e
00000020: 04dd 9a3d 7c42 473e 3952 62bc d3c8 2cbd
00000030: 87a8 c9bd be53 d8be f528 5dbd bc41 ac3c
00000040: c6cb e33d 2a3e f13c 8c00 fbbd 1f28 5a3e
00000050: 9d6d 26be 5f46 983d 1e67 b4bd c381 63be
00000060: 78b8 893d e6ab 2ebe 8d0e 47bd cbf3 ae3d
00000070: 828e 9f3d 6437 363d bafd 4f3e 320f 363d
00000080: 109f c8bc ff08 133d 14a5 91bd 1622 833c
00000090: 843c a1bd 6486 bc3e dcbf f1bd ca99 fd3d
000000a0: 25a4 5fbd 3a18 8a3d 67c8 4abd ec32 8abe
000000b0: 929f 1e3e 74c4 2b3e 9446 f2be db62 a23b
000000c0: 6e28 323d bde8 063e 0fdc 9dbd ba63 cd3d
000000d0: a037 33bc e0b0 0fbe 95e2 1c3e f8d2 e03c
000000e0: 7aae 2e3d 4212 083d 205d 533e 2064 263d
000000f0: 6345 25bd c738 5b3e 6927 96bc 2895 50bc
00000100: 67f2 23bc 38bc e93c a54b 1e3e cf8b 1f3e
00000110: da2f 343d 42a7 4dbb 4fac ecbd 44df 44bd
00000120: 60eb 923d 4a28 fd3c cf1f 5f3d 9fa9 513d
00000130: 6a8c 0fbd 2eb1 28be eca7 abbd 425c 123e
00000140: 24b4 7ebc 9b6f 84be 5a73 3e3e 2227 9b3b
00000150: 7603 9d3d 0d96 88bc 447a d33d a43a 08bd
00000160: 6c6a 98bd b759 44bd 4717 fcbd ed1e 813c
00000170: 0da1 c7bb 4af6 04be 9137 563c 3efe 123e
00000180: ca6f aabd c126 503d d70e 8abd b872 1f3e

emb_layer2.1.weight f4 [100]
0.13400671 0.15753335 0.20394412 0.29150307 0.15364134 0.10304931 0.23686329 0.35098827
0.23247017 1.0910326 0.15792927 0.14612165 0.24131906 4.714096 0.7042939 0.09971088
0.18855506 0.23571554 0.27766517 0.35707363 0.1268887 0.11012516 0.33564153 0.20923665
0.104433514 0.20264173 0.11651969 0.22334993 0.09143357 0.10981975 0.22280516 0.14380433
0.17550746 0.18978332 0.25243604 0.3320251 0.14441979 0.579992 0.1430136 0.14632642
0.20740688 0.24461433 0.26209962 0.16806999 0.28224874 0.36831707 0.22967863 0.16994277
0.2600231 0.25573778 0.46606445 0.2002598 0.2557441 0.28024173 0.16193178 0.17711732
0.06693199 0.20965964 0.7082644 0.3369754 0.1254874 0.19743712 0.21223065 0.5130135
0.27339396 0.098223865 0.32620466 0.2116243 4.5428514 0.1287933 0.16149062 0.116830274
0.028697118 0.14038153 0.18624792 0.1615569 0.21917 0.44358256 0.56967735 0.23118857
0.76199365 0.31793028 0.2880721 0.15488905 0.05646506 0.14238834 0.16983128 0.15183507
0.12733334 0.74639004 0.296951 0.13308245 0.13987559 0.04969023 0.12713474 0.11495443
0.11490794 0.37544268 0.12561975 0.2843534
00000000: 0e39 093e 6c50 213e bad6 503e e43f 953e
00000010: 2854 1d3e 840b d33d 4a8c 723e bcb4 b33e
00000020: a90c 6e3e f5a6 8b3f 36b8 213e eaa0 153e
00000030: 581c 773e e0d9 9640 9b4c 343f 3835 cc3d
00000040: 9414 413e 6a5f 713e 212a 8e3e 5bd2 b63e
00000050: 1def 013e 4d89 e13d 35d9 ab3e 2242 563e
00000060: 3de1 d53d 5081 4f3e e0a1 ee3d d8b5 643e
00000070: 8641 bb3d 2de9 e03d 0927 643e 7141 133e
00000080: 3ab8 333e 8f56 423e 4c3f 813e 32ff a93e
00000090: c8e2 133e 5b7a 143f 2872 123e 98d6 153e
000000a0: 7862 543e 2e7c 7a3e ec31 863e 8a1a 2c3e
000000b0: e882 903e 0e94 bc3e e030 6b3e 7a05 2e3e
000000c0: bf21 853e 10f0 823e 00a0 ee3e e810 4d3e
000000d0: e4f0 823e d87b 8f3e 72d1 253e 3e5e 353e
000000e0: a413 893d 04b1 563e d150 353f 0a88 ac3e
000000f0: c57f 003e f52c 4a3e fe52 593e da54 033f
00000100: 4bfa 8b3e 9829 c93d 4c04 a73e 0ab4 583e
00000110: 0a5f 9140 64e2 033e cc5d 253e b644 ef3d
00000120: 3816 eb3c 2dc0 0f3e c6b7 3e3e 2c6f 253e
00000130: 1a6e 603e 411d e33e 60d6 113f b2bc 6c3e
00000140: 0412 433f c2c7 a23e 307e 933e 3c9b 1e3e
00000150: e847 673d 40ce 113e 40e8 2d3e a77a 1b3e
00000160: ac63 023e 6b13 3f3f f609 983e c446 083e
00000170: 8c3b 0f3e fc87 4b3d 9c2f 023e 3a6d eb3d
00000180: db54 eb3d 063a c03e 77a2 003e c596 913e

emb_layer2.1.bias f4 [100]
-0.96050835 -1.0443377 -1.0831879 -1.6835848 -0.9082324 -0.69791317 -1.7118776 -2.0517175
-1.4469352 -1.3876919 -0.9991683 -0.8470271 -1.0758202 -4.6833396 -3.9494898 -0.7093608
-1.4326231 -1.3456194 -1.7565074 -2.0271251 -0.7778754 -0.98584473 -2.0069377 -1.3376321
-0.79129106 -1.2452154 -1.0337188 -1.7076001 -0.5965324 -0.7373177 -1.356673 -0.9398916
-0.8017092 -1.4582809 -1.6252422 -1.8723 -0.822517 -3.3256607 -0.87780446 -0.8687806
-1.1881973 -1.4868702 -1.5198132 -1.0164859 -2.0048122 -2.335704 -1.3198237 -1.0412972
-1.7304657 -1.469427 -2.71257 -0.7794939 -1.5521711 -1.6102376 -0.9679758 -1.1329358
-0.49767476 -1.1893293 -3.9922905 -1.9019244 -0.71259266 -1.1597427 -1.2740303 -2.9136791
-1.528697 -0.86212516 -1.8115832 -1.2445035 -4.77413 -0.7476169 -1.0338541 -1.0976633
-0.56788296 -0.8199312 -1.1602204 -1.019367 -1.4420556 -2.6052704 -3.1854248 -1.6877794
-4.2778707 -1.8235592 -2.1440704 -0.8204163 -0.5663461 -1.3896823 -1.2967165 -0.91471356
-1.0303 -4.2611294 -1.9687817 -0.7476362 -0.8879715 -0.88030094 -0.82412255 -0.8335501
-1.0322117 -2.3773227 -0.84806883 -1.6187595
00000000: e0e3 75bf dcac 85bf e7a5 8abf b57f d7bf
00000010: eb81 68bf 70aa 32bf ce1e dbbf 574f 03c0
00000020: 2c35 b9bf e39f b1bf 7ec9 7fbf c5d6 58bf
00000030: 7ab4 89bf ebdd 95c0 71c4 7cc0 ab98 35bf
00000040: 3260 b7bf 423d acbf 3cd5 e0bf 6bbc 01c0
00000050: d822 47bf 5260 7cbf ab71 00c0 8737 abbf
00000060: 0d92 4abf 3863 9fbf e650 84bf a492 dabf
00000070: 59b6 18bf dac0 3cbf 76a7 adbf bc9c 70bf
00000080: d03c 4dbf f3a8 babf f007 d0bf 87a7 efbf
00000090: 7990 52bf a0d7 54c0 cbb7 60bf 6868 5ebf
000000a0: d916 98bf c351 bebf 3d89 c2bf 361c 82bf
000000b0: d84e 00c0 2d7c 15c0 fcef a8bf 3a49 85bf
000000c0: e67f ddbf 2f16 bcbf bf9a 2dc0 ea8c 47bf
000000d0: 8bad c6bf 441c cebf 43cd 77bf 0a04 91bf
000000e0: 3acf febe f13b 98bf b081 7fc0 4272 f3bf
000000f0: 796c 36bf 7372 94bf 6d13 a3bf b879 3ac0
00000100: 58ac c3bf 3cb4 5cbf f5e1 e7bf e44b 9fbf
00000110: acc5 98c0 d263 3fbf 5555 84bf 3b80 8cbf
00000120: c760 11bf 03e7 51bf 1a82 94bf 9e7a 82bf
00000130: 4795 b8bf c0bc 26c0 00de 4bc0 2809 d8bf
00000140: 51e4 88c0 636a e9bf 7338 09c0 cd06 52bf
00000150: 0ffc 10bf 1ce1 b1bf cefa a5bf ab2a 6abf
00000160: dfe0 83bf 2c5b 88c0 0a01 fcbf 1665 3fbf
00000170: 1a52 63bf 675b 61bf b2f9 52bf 8a63 55bf
00000180: 831f 84bf 0e26 18c0 0a1b 59bf 8333 cfbf

emb_layer2.1.running_mean f4 [100]
98.50044 -39.34965 -463.60037 -347.04865 -289.2284 138.32835 451.21658 194.36221
-254.60136 -2738.0706 -119.447876 -199.88289 -557.9874 -9732.53 76.18927 167.43898
-524.17175 -474.13043 -627.9337 -92.69427 -331.67807 -48.418404 -293.62003 730.32874
-51.659107 -2.9507494 -152.4735 -225.37576 -73.445435 186.60184 803.5454 35.251434
-327.28424 -191.28809 -85.756386 606.62006 -192.00562 1402.4692 -409.38046 105.995255
211.02753 -413.33408 -546.2079 3403.4575 -751.5624 -114.13491 -916.7721 -85.15746
-62.86463 39.77575 -201.15129 -137.3153 -221.39098 73.08941 160.0807 -38.023094
-190.43695 -409.4978 -99.76524 -268.52625 46.876556 49.581646 237.93758 293.88477
328.1973 -172.89157 -489.0847 -250.07681 -9003.121 -107.826515 -422.04633 217.67735
-46.581726 -152.76912 -461.89728 -211.16406 -275.28476 -86.34837 423.94598 -654.8407
471.7231 -948.3439 -46.52712 -255.92213 -175.997 228.49016 301.74728 58.211586
-247.6584 739.43774 45.830345 163.77478 -68.07477 -174.57576 -229.69336 -210.02286
-89.40812 -286.06854 -198.49171 354.85077
00000000: 3a00 c542 0b66 1dc2 d9cc e7c3 3a86 adc3
00000010: 3c9d 90c3 0f54 0a43 b99b e143 ba5c 4243
00000020: f399 7ec3 2121 2bc5 50e5 eec2 05e2 47c3
00000030: 327f 0bc4 1f12 18c6 e860 9842 6170 2743
00000040: fe0a 03c4 b210 edc3 c2fb 1cc4 7763 b9c2
00000050: cbd6 a5c3 72ac 41c2 5dcf 92c3 0a95 3644
00000060: eda2 4ec2 14d9 3cc0 3779 18c3 3260 61c3
00000070: 10e4 92c2 129a 3a43 e8e2 4844 7801 0d42
00000080: 62a4 a3c3 c049 3fc3 4583 abc2 afa7 1744
00000090: 7001 40c3 044f af44 b3b0 ccc3 92fd d342
000000a0: 0c07 5343 c3aa cec3 4e8d 08c4 52b7 5445
000000b0: fee3 3bc4 1345 e4c2 6a31 65c4 9f50 aac2
000000c0: 6275 7bc2 5e1a 1f42 bb26 49c3 b850 09c3
000000d0: 1764 5dc3 c72d 9242 a914 2043 a617 18c2
000000e0: dc6f 3ec3 b8bf ccc3 ce87 c7c2 5c43 86c3
000000f0: 9881 3b42 9b53 4642 05f0 6d43 40f1 9243
00000100: 4119 a443 3ee4 2cc3 d78a f4c3 aa13 7ac3
00000110: 7cac 0cc6 2da7 d7c2 ee05 d3c3 67ad 5943
00000120: b053 3ac2 e5c4 18c3 daf2 e6c3 002a 53c3
00000130: 73a4 89c3 5eb2 acc2 16f9 d343 ceb5 23c4
00000140: 8fdc eb43 0216 6dc4 c51b 3ac2 11ec 7fc3
00000150: 3bff 2fc3 7b7d 6443 a7df 9643 aad8 6842
00000160: 8da8 77c3 04dc 3844 4652 3742 58c6 2343
00000170: 4826 88c2 6593 2ec3 80b1 65c3 da05 52c3
00000180: f5d0 b2c2 c608 8fc3 e17d 46c3 e66c b143

emb_layer2.1.running_var f4 [100]
34051.848 47053.46 153642.53 156080.27 27578.033 13495.542 1.5284392e+06 308813.28
720776.2 9.707977e+06 11688.379 18020.5 201731.25 6.9197016e+07 2.0700111e+06 11577.432
1.491989e+06 62240.344 274220.56 487427.66 45182.652 7884.081 741231.56 6.865332e+06
113880.39 39014.426 46365.777 94805.71 4012.882 26570.994 9.985961e+06 188613.9
64805.375 32123.877 304325.97 395854.7 14790.998 1.0568756e+07 64977.43 93423.37
19268.695 196012.53 665689.3 6.411035e+07 639307.56 229314.58 1.92079e+06 71112.79
441713.5 217206.47 386996.28 5088.3394 123625.04 613180.44 42220.43 66554.56
32292.926 79904.42 1.21233e+06 245957.88 3636.3323 134414.17 141066.84 1.5109931e+06
154397.7 9060.938 143995.36 599314.6 7.0756904e+07 4474.1543 54015.6 1.1248176e+06
30979.352 49231.11 82395.64 58041.176 157609.9 1.9439282e+06 935707.6 173034.86
1.7554561e+06 459841.22 522327.88 49347.676 12213.2705 78352.32 109540.68 70822.47
27048.229 2.5735675e+06 1.4908361e+06 20919.725 40369.39 28252.828 29491.174 28344.467
104339.2 515218.22 14707.315 104828.15
00000000: d903 0547 76cd 3747 a20a 1648 116c 1848
00000010: 1174 d746 2bde 5246 ba93 ba49 a9c9 9648
00000020: 83f8 2f49 c921 144b 84a1 3646 00c9 8c46
00000030: d000 4548 9bfb 834c d9af fc49 bae5 3446
00000040: a820 b649 5820 7347 92e5 8548 7500 ee48
00000050: a77e 3047 a660 f645 f9f6 3449 6883 d14a
00000060: 326c de47 6d66 1847 c71d 3547 db2a b947
00000070: 1dce 7a45 fd95 cf46 a95f 184b 7a31 3848
00000080: 6025 7d47 c1f7 fa46 bf98 9448 d649 c148
00000090: fe1b 6746 3444 214b 6ed1 7d47 af77 b647
000000a0: 6489 9646 226b 3f48 9585 2249 c48f 744c
000000b0: b914 1c49 a5f0 5f48 b078 ea49 65e4 8a47
000000c0: 30ae d748 9e1d 5448 89f6 bc48 b702 9f45
000000d0: 8574 f147 c7b3 1549 6eec 2447 48fd 8147
000000e0: da49 fc46 3610 9c47 50fd 9349 7831 7048
000000f0: 5145 6345 8b43 0348 b6c2 0948 8972 b849
00000100: 6dc7 1648 c193 0d46 d79e 0c48 2a51 1249
00000110: 45f5 864c 3cd1 8b45 9aff 5247 8d4e 8949
00000120: b406 f246 1c4f 4047 d2ed a047 2db9 6247
00000130: 7aea 1948 c24b ed49 ba71 6449 b7fa 2848
00000140: 014a d649 2788 e048 fc0a ff48 adc3 4047
00000150: 15d5 3e46 2908 9947 57f2 d547 3c53 8a47
00000160: 7550 d346 fe13 1d4a a1fc b549 736f a346
00000170: 64b1 1d47 a8b9 dc46 5966 e646 ef70 dd46
00000180: 9ac9 cb47 4792 fb48 43cd 6546 13be cc47

classifier1.0.weight f4 [100, 100]
-0.067532554 -0.1912879 -0.13267648 -0.11336162 -0.11870648 -0.07643671 -0.00040588528 0.12586203
-0.064450346 -0.09969906 -0.097311825 -0.19985792 -0.013264939 -0.1629159 -0.07644402 -0.1520454
-0.119121455 -0.1922628 -0.14401357 -0.11047141 -0.026867107 -0.03558564 -0.17525002 -0.14397468
0.034143507 -0.0399562 -0.12588806 -0.16243243 -0.004781641 -0.18327257 -0.077529594 -0.0072423145
-0.19048479 -0.007360682 -0.14921063 -0.012116663 -0.04561182 -0.1381963 -0.16906331 -0.19222783
-0.08832654 -0.100156546 -0.114105195 -0.12764935 -0.03352187 -0.10247359 -0.026398964 -0.0371498
-0.05089073 -0.13942192 -0.12801196 -0.07630984 -0.05079753 -0.110377684 -0.19857326 -0.14069037
-0.07149412 -0.17925194 -0.1162041 -0.008816659 -0.1899439 -0.035452187 -0.043912116 -0.034604006
-0.049805988 -0.020815857 -0.18100518 -0.12719129 -0.019800171 -0.09820472 -0.17135824 -0.010055654
-0.1978215 -0.008497715 -0.09885166 -0.021729872 -0.06024944 -0.116585895 -0.040674318 -0.18545428
-0.14090052 -0.035776056 -0.11524948 -0.0646162 -0.07688341 -0.0050530434 -0.18184404 -0.087259084
-0.10188561 -0.14694552 -0.035823062 -0.0026878938 -0.14667167 -0.10896993 -0.04221426 -0.09630208
-0.15917692 -0.18209372 -0.036826447 -0.044056505 -0.21617423 0.15079199 -0.3359695 0.7539088
0.06769587 -0.14901632 4.0728006 4.499762 2.083064 -0.056125693 0.06847165 0.09901923
0.114720576 -0.3237406 6.300921 -0.06486531 0.6620692 0.1621444 2.0996304 -0.16085358
-0.07550883 0.044065565 4.3306956 1.4887108 0.24196358 1.3123901 -0.09708441 1.1604538
-0.055033244 -0.32655358 1.8151062 0.19630682 0.23581247 0.9726503 3.5617409 2.2282832
-0.27600527 4.3041306 -0.25831053 0.4340498 0.014114655 -0.114129774 0.030572012 2.4458427
3.2180846 2.594004 -0.36775756 0.99740916 -0.5469824 3.5165682 3.9865336 -0.035634097
1.2971901 2.064716 -0.12880029 0.8613128 0.030680507 0.018124472 4.7365193 1.6273285
-0.011638449 0.7556073 0.15885329 0.10888968 0.59480244 0.047758427 2.2730398 1.8886056
-0.3407888 -0.016276237 0.03473545 2.4122024 -0.045612223 -0.19527881 -0.12157729 0.075361654
-0.033719633 0.89170516 -0.262488 0.4556847 0.063434154 5.292923 5.43768 0.18896855
-0.12328177 -0.26762244 0.8428493 -0.7726953 0.06845804 -0.09821745 1.6653976 -0.12822868
-0.013857811 0.07108672 0.02720989 -0.6929931 -0.25860918 3.5963662 0.14616062 1.1979679
-0.16210698 -0.049824983 -0.040255863 -0.057796095 -0.018363468 -0.15739687 -0.11362357 -0.0014117211
-0.15667616 -0.08308299 -0.10391002 -0.09425685 -0.09696073 -0.12917301 -0.18469551 -0.032290272
-0.0992306 -0.14144595 -0.05248382 -0.099636205 -0.19614482 -0.12081427 -0.124201074 -0.11172118
-0.09119713 -0.19577989 -0.06305006 -0.17041972 -0.08853412 -0.121107735 -0.036528453 -0.03793753
-0.08578292 -0.058819618 -0.012333408 -0.15068972 -0.15259662 -0.021872252 -0.05176007 -0.16518247
-0.1456322 -0.035014227 -0.17729467 -0.06673448 -0.095872894 -0.0647385 -0.18674225 -0.01410038
-0.11196983 -0.084167734 -0.18657205 -0.1161714 -0.008246332 -0.16241804 -0.023713924 -0.10183775
00000000: 824e 8abd fae0 43be 58dc 07be 232a e8bd
00000010: 621c f3bd da8a 9cbd 00cd d4b9 fae1 003e
00000020: 8bfe 83bd 052f ccbd 6c4b c7bd 8ea7 4cbe
00000030: 3055 59bc 6dd3 26be af8e 9cbd cab1 1bbe
00000040: f3f5 f3bd 8ae0 44be 4b78 13be d63e e2bd
00000050: 6818 dcbc 40c2 11bd be74 33be 196e 13be
00000060: 10da 0b3d 1da9 23bd cde8 00be b054 26be
00000070: 50af 9cbb ceab 3bbe d6c7 9ebd f050 edbb
00000080: 720e 43be e031 f1bb acca 18be f884 46bc
00000090: 76d3 3abd 5583 0dbe ef1e 2dbe 5fd7 44be
000000a0: 8ce4 b4bd e01e cdbd fcaf e9bd 83b6 02be
000000b0: 3a4e 09bd acdd d1bd a442 d8bc 642a 18bd
000000c0: cc72 50bd 9fc4 0ebe 9115 03be 5548 9cbd
000000d0: 1211 50bd b20d e2bd ca56 4bbe 2311 10be
000000e0: 826b 92bd d28d 37be 6afc edbd c073 10bc
000000f0: a780 42be 5036 11bd 31dd 33bd eebc 0dbd
00000100: 5d01 4cbd 0486 aabc 6c59 39be 6f3e 02be
00000110: f833 a2bc 8e1f c9bd 8978 2fbe 78c0 24bc
00000120: b891 4abe 003a 0bbc bd72 cabd d802 b2bc
00000130: 1ec8 76bd 96c4 eebd 1d9a 26bd bae7 3dbe
00000140: 3a48 10be ea89 12bd eb07 ecbd 8055 84bd
00000150: 0d75 9dbd 0094 a5bb 5335 3abe e4b4 b2bd
00000160: 67a9 d0bd e378 16be 34bb 12bd 6027 30bb
00000170: 1931 16be a02b dfbd dce8 2cbd 063a c5bd
00000180: 46ff 22be c776 3abe 54d7 16bd 9874 34bd
00000190: c75c 5dbe 3769 1a3e 3204 acbe 2b00 413f
000001a0: 22a4 8a3d bc97 18be 6254 8240 0dfe 8f40
000001b0: ec50 0540 0ee4 65bd dd3a 8c3d 98ca ca3d
000001c0: 9ff2 ea3d 54c1 a5be 25a1 c940 1bd8 84bd
000001d0: 5e7d 293f 2e09 263e 5860 0640 cdb6 24be
000001e0: 60a4 9abd 187e 343d 0f95 8a40 138e be3f
000001f0: 4dc5 773e 66fc a73f 31d4 c6bd c089 943f
00000200: 8a6a 61bd 0832 a7be 6655 e83f a804 493e
00000210: d378 713e 9cff 783f 90f3 6340 319c 0e40
00000220: 9050 8dbe 70bb 8940 4741 84be c63b de3e
00000230: 2741 673c dfbc e9bd 2872 fa3c b088 1c40
00000240: 19f5 4d40 2904 2640 b84a bcbe 3556 7f3f
00000250: 0a07 0cbf 740f 6140 5e23 7f40 0ff5 11bd
00000260: 530a a63f 4f24 0440 39e4 03be ff7e 5c3f
00000270: b055 fb3c c679 943c 9191 9740 4d4c d03f
00000280: 31af 3ebc 7b6f 413f 70aa 223e 8d01 df3d
00000290: f944 183f 579e 433d 7c79 1140 d4bd f13f
000002a0: df7b aebe be55 85bc c246 0e3d 8661 1a40
000002b0: e2d3 3abd 2bf7 47be 84fd f8bd 3657 9a3d
000002c0: 991d 0abd ca46 643f d464 86be 814f e93e
000002d0: c4e9 813d a05f a940 7901 ae40 f980 413e
000002e0: 277b fcbd cf05 89be f9c4 573f 5ccf 45bf
000002f0: bb33 8c3d 3b26 c9bd c02b d53f 614e 03be
00000300: df0b 63bc ea95 913d 46e7 de3c ff67 31bf
00000310: 6c68 84be dd2a 6640 21ab 153e 0357 993f
00000320: 5fff 25be 4815 4cbd 55e3 24bd 99bb 6cbd
00000330: fc6e 96bc a52c 21be 79b3 e8bd 8009 b9ba
00000340: b76f 20be 6a27 aabd c7ce d4bd bc09 c1bd
00000350: 5993 c6bd ee45 04be d220 3dbe ce42 04bd
00000360: 6a39 cbbd 35d7 10be 46f9 56bd 110e ccbd
00000370: 30da 48be 796d f7bd 225d febd 13ce e4bd
00000380: 90c5 babd 867a 48be 6420 81bd 8282 2ebe
00000390: 6051 b5bd 5507 f8bd dc9e 15bd 6264 1bbd
000003a0: f5ae afbd d7ec 70bd 1012 4abc 684e 1abe
000003b0: 4a42 1cbe 702d b3bc 5e02 54bd 9825 29be
000003c0: 9c20 15be 146b 0fbd bc8c 35be 16ac 88bd
000003d0: 0259 c4bd 9e95 84bd 5c39 3fbe 4805 67bc
000003e0: 7050 e5bd 2260 acbd be0c 3fbe 45eb edbd
000003f0: a01b 07bc ea50 26be b443 c2bc 4f90 d0bd

classifier1.0.bias f4 [100]
-0.05103999 -3.2035809 -0.0703138 -0.11405131 -0.04417945 -0.04477632 -0.10884339 -0.23803878
-0.7095294 -0.16356394 -0.18696523 -0.07360806 -0.13920759 -0.03940441 -0.18128276 -0.07429499
-0.32669443 -0.15126485 -0.14611128 -0.058261562 -0.1991787 -0.16669658 -0.116173916 -0.16890565
-14.716687 -9.607944 -0.3475188 -0.030480683 -0.5514213 -0.11931393 -0.1419038 -0.10327109
-0.10194826 -3.9218948 -0.08807727 -0.13235404 -0.06581941 -19.06307 -0.5483236 -0.21344274
-0.1883148 -3.139109 -0.037799448 -0.07378038 -0.08686685 -0.18499063 -0.10479893 -0.031382293
-0.15123923 -0.050972573 -4.4156847 -0.07921826 -5.0021267 -0.0316882 -0.1354298 -0.14686695
-1.5331054 -0.20050956 -2.0499046 -4.0267973 -0.23182884 -2.5021095 -0.0855734 -0.0063398257
-0.44480324 -0.07022335 -0.172388 -0.1955671 -2.2675934 -0.35721397 -0.13956127 -0.064881146
-4.885197 -0.0712071 -0.24054523 -0.11199728 -0.15192257 -0.092814304 -3.0395675 -0.07253495
-0.13918194 -2.8579686 -0.5739191 -0.2112816 -4.1438894 -0.21057281 -0.074651495 -0.19054818
-0.15787734 -0.13740222 -0.14376134 -0.0051667914 -0.00031156838 -0.08854584 -0.12535873 -0.07744509
-0.31309932 -0.15518236 -0.16921988 -0.0009487495
00000000: 4f0f 51bd 7807 4dc0 ae00 90bd bc93 e9bd
00000010: 83f5 34bd 6067 37bd 49e9 debd 70c0 73be
00000020: b8a3 35bf 4e7d 27be d073 3fbe d3bf 96bd
00000030: 6f8c 0ebe 8566 21bd 30a2 39be f927 98bd
00000040: 7e44 a7be 2ce5 1abe 329e 15be ada3 6ebd
00000050: 80f5 4bbe 82b2 2abe 97ec edbd 9af5 2cbe
00000060: 8d77 6bc1 23ba 19c1 fced b1be a0b2 f9bc
00000070: f229 0dbf dd5a f4bd 3b4f 11be cb7f d3bd
00000080: 40ca d0bd 5300 7bc0 db61 b4bd d187 07be
00000090: 54cc 86bd 2b81 98c1 ef5e 0cbf bc90 5abe
000000a0: 98d5 40be 29e7 48c0 98d3 1abd 2b1a 97bd
000000b0: 3fe7 b1bd 2f6e 3dbe d2a0 d6bd b88a 00bd
000000c0: 75de 1abe 9ec8 50bd 4a4d 8dc0 2f3d a2bd
000000d0: 6c11 a0c0 7ccb 01bd 1cae 0abe 4a64 16be
000000e0: cc3c c4bf 6152 4dbe a331 03c0 86db 80c0
000000f0: 8a64 6dbe 9022 20c0 1b41 afbd 50be cfbb
00000100: 40bd e3be 42d1 8fbd 7b86 30be be42 48be
00000110: 4020 11c0 c0e4 b6be 26e9 0ebe 68e0 84bd
00000120: 8953 9cc0 07d5 91bd 7d51 76be d45e e5bd
00000130: 9791 1bbe 6d15 bebd 4688 42c0 348d 94bd
00000140: b685 0ebe f5e8 36c0 5dec 12bf 345a 58be
00000150: be9a 84c0 66a0 57be e2e2 98bd 101f 43be
00000160: 99aa 21be 2bb3 0cbe 2c36 13be 304e a9bb
00000170: 005a a3b9 8557 b5bd 0a5e 00be 889b 9ebd
00000180: 8e4e a0be 20e8 1ebe fa47 2dbe 80b5 78ba

classifier2.0.weight f4 [100, 100]
0.107916735 -0.5716902 0.18424836 -0.059984993 0.07138246 -0.05058255 -0.03760184 -0.05432836
0.38434523 0.14123453 -0.006439245 -0.18844236 -0.012932569 -0.07433883 -0.12532882 -0.16198306
-0.24558476 0.011438275 -0.79907507 -0.0620007 -0.12677944 -0.055841666 -0.0519114 0.032943755
0.034079082 -0.08731076 0.35146254 0.07506765 -0.14912607 0.08906681 -0.0670923 0.06942643
0.099162936 0.39401868 0.090908185 -0.074870765 0.07074823 -0.08351501 -0.05436208 -0.800651
0.09659871 -0.31252763 -0.110138334 0.081999876 -0.06888205 0.052387554 -0.063325554 0.015700333
-0.018147267 0.12694602 -0.05246128 -0.082020596 -0.36812833 0.0039302856 0.081929825 0.049975485
-0.22243892 0.0017556902 -0.87281436 -0.08659444 -0.047117837 0.58218426 0.10721128 0.16892222
0.2972019 -0.17306003 0.04209602 -0.14236976 -0.45318165 0.15841247 0.00063565373 0.003106542
-0.7183195 -0.16138774 0.082273446 -0.014944601 -0.020152306 0.025343686 -0.061078962 -0.044793297
0.060034055 0.6069919 -0.2423424 -0.018060498 -0.61285144 0.043576393 0.047074236 -0.052234996
0.0113310665 -0.066143826 0.044349372 0.15641528 0.19450358 0.0430851 0.056375846 0.27281737
-0.26706472 0.09239295 -0.09828506 0.034314908 0.008270335 -0.09302869 -0.070916735 -0.00027207137
0.05271516 -0.041840613 -0.030408217 -0.07183418 -0.048964407 0.060235824 0.06982312 0.036206782
-0.034242418 -0.17318428 -0.04568726 0.0105562685 0.009846103 -0.00762136 -0.15053222 0.024985671
-0.08593514 0.029533649 -0.0588707 0.04338899 -0.044323858 -0.023340464 0.033836007 0.0046709417
0.044143688 0.07476302 0.071842395 -0.059228312 0.016457617 -0.065046094 -0.05139202 0.027315283
-0.033837046 -0.029264256 -0.097831465 -0.06844752 0.035649538 -0.022584116 -0.0013916492 -0.19224587
0.010519266 0.078191616 0.019397998 -0.019177759 -0.0048759356 0.056189466 -0.032310866 0.07414394
-0.067512274 -0.030428816 0.05896889 -0.03130114 -0.09303317 -0.06312932 -0.0023707151 -0.12617983
-0.077077426 -0.032019902 -0.0139364 -0.0943113 -0.1682108 -0.033830896 -0.016657865 0.07458561
0.02644583 -0.031001998 -0.06693186 0.06942042 0.0059539317 -0.055517104 -0.000295949 -0.04867951
0.07503828 -0.022998119 -0.14719766 -0.08112868 -0.010969246 0.040965177 -0.09589169 -0.029424705
-0.06645005 0.027217722 0.0064759613 0.079153635 -0.078374684 0.05263534 -0.12501837 -0.034843422
0.03522451 -0.003050506 -0.07904234 -0.08987977 -0.15830594 -0.028020287 -0.018071031 0.023696661
0.078483604 0.019110754 -0.09033232 0.0727235 -0.09738787 0.04132676 -0.18426111 -0.015520976
0.14069207 0.050323654 -0.063950315 0.015088759 -0.061769713 -0.05445328 0.035850417 -0.06916451
-0.11629789 0.03499911 -0.6057397 -0.056566823 0.2793475 0.05303779 0.04942056 -0.03034277
-2.5083792 2.4071057 -0.18290685 -0.02950126 -0.002203819 0.1983 -0.06834268 -0.1049761
0.07485839 -0.059589367 -0.026910782 -0.009848607 0.011971819 -1.7169508 -0.11417782 -1.1374756
-0.06263491 -3.5079374 -0.09922669 -0.0038552403 -0.014017666 0.057809424 -0.0074340343 -0.09746736
0.017814267 0.07200219 -1.3315806 0.022287965 -0.026119336 0.060159754 0.21015005 -0.012220693
00000000: 7303 dd3d 4a5a 12bf 9aab 3c3e d3b2 75bd
00000010: f830 923d a62f 4fbd 6304 1abd 6a87 5ebd
00000020: e6c8 c43e c99f 103e 4d00 d3bb 09f7 40be
00000030: 20e3 53bc f53e 98bd 3356 00be e3de 25be
00000040: 927a 7bbe 9a67 3b3c 2f90 4cbf 72f4 7dbd
00000050: 78d2 01be 3bba 64bd 0ca1 54bd 08f0 063d
00000060: 8296 0b3d fccf b2bd e6f2 b33e 11bd 993d
00000070: 81b4 18be a968 b63d b067 89bd 722f 8e3d
00000080: f015 cb3d d1bc c93e 122e ba3d d855 99bd
00000090: 73e4 903d eb09 abbd c6aa 5ebd 77f7 4cbf
000000a0: 8bd5 c53d 9f03 a0be 3590 e1bd 8def a73d
000000b0: 0812 8dbd 5594 563d d4b0 81bd fc9d 803c
000000c0: 94a9 94bc 23fe 013e a4e1 56bd 6afa a7bd
000000d0: 517b bcbe a0c9 803b d3ca a73d 18b3 4c3d
000000e0: 07c7 63be 301f e63a c370 5fbf 6d58 b1bd
000000f0: a2fe 40bd 070a 153f 9691 db3d f2f9 2c3e
00000100: d92a 983e a636 31be e06c 2c3d 61c9 11be
00000110: 6d07 e8be e136 223e 00a2 263a 2097 4b3b
00000120: c9e3 37bf d442 25be fb7e a83d 33da 74bc
00000130: 7316 a5bc 909d cf3c ef2d 7abd 2d79 37bd
00000140: 45e6 753d d263 1b3f 9b28 78be 9cf3 93bc
00000150: d5e3 1cbf 297d 323d ead0 403d 5df4 55bd
00000160: f0a5 393c 6a76 87bd b0a7 353d 542b 203e
00000170: f22b 473e 007a 303d 5cea 663d b8ae 8b3e
00000180: b5bc 88be 8438 bd3d ad49 c9bd ca8d 0c3d
00000190: 4d80 073c d385 bebd cb3c 91bd cda4 8eb9
000001a0: daeb 573d 1061 2bbd a71a f9bc cc1d 93bd
000001b0: e78e 48bd d7b9 763d 6dff 8e3d 904d 143d
000001c0: c741 0cbd 3857 31be 9022 3bbd 33f4 2c3c
000001d0: 8d51 213c 9abc f9bb 1e25 1abe c0ae cc3c
000001e0: c3fe afbd 8df0 f13c 6722 71bd a7b8 313d
000001f0: ef8c 35bd 8034 bfbc a097 0a3d b30e 993b
00000200: 03d0 343d 5b1d 993d 1b22 933d 6399 72bd
00000210: 20d2 863c e336 85bd 7080 52bd 4dc4 df3c
00000220: b798 0abd 98bb efbc dd5b c8bd 372e 8cbd
00000230: 4005 123d 5302 b9bc 0068 b6ba 1adc 44be
00000240: 0059 2c3c ed22 a03d 8de8 9e3c ad1a 9dbc
00000250: 50c6 9fbb ed26 663d 6658 04bd c7d8 973d
00000260: e043 8abd da45 f9bc 5d89 713d a035 00bd
00000270: 2d88 bebd f249 81bd 005e 1bbb 4935 01be
00000280: c5da 9dbd 4d27 03bd 8055 64bc 4826 c1bd
00000290: 743f 2cbe 4492 0abd 1376 88bc 57c0 983d
000002a0: eda4 d83c e7f7 fdbc 9213 89bd 4b2c 8e3d
000002b0: 3319 c33b e765 63bd 9a29 9bb9 2a64 47bd
000002c0: abad 993d 8d66 bcbc fcba 16be cb26 a6bd
000002d0: 5ab8 33bc 1acb 273d dd62 c4bd 140c f1bc
000002e0: f716 88bd b3f7 de3c 4d34 d43b 4d1b a23d
000002f0: e882 a0bd 2798 573d d104 00be fab7 0ebd
00000300: 9347 103d 00eb 47bb f3e0 a1bd e312 b8bd
00000310: f41a 22be cd8a e5bc b309 94bc 801f c23c
00000320: 03bc a03d 288e 9c3c 2700 b9bd 0ff0 943d
00000330: 4b73 c7bd 4046 293d f2ae 3cbe b14b 7ebc
00000340: 9511 103e 2d20 4e3d 62f8 82bd d836 773c
00000350: 3d02 7dbd 670a 5fbd e3d7 123d 1fa6 8dbd
00000360: 972d eebd 3a5b 0f3d c211 1bbf 9db2 67bd
00000370: a306 8f3e 273e 593d 376d 4a3d 6791 f8bc
00000380: 4989 20c0 050e 1a40 ef4b 3bbe a0ac f1bc
00000390: f36d 10bb 280f 4b3e 3ff7 8bbd b6fd d6bd
000003a0: 5b4f 993d fb13 74bd 0074 dcbc 0d5c 21bc
000003b0: 7325 443c 0bc5 dbbf 10d6 e9bd cd98 91bf
000003c0: bb46 80bd 0c82 60c0 5d37 cbbd 33a8 7cbb
000003d0: 5aaa 65bc 93c9 6c3d 3399 f3bb f89c c7bd
000003e0: 3aef 913c e275 933d 3c71 aabf 4095 b63c
000003f0: 38f8 d5bc 136a 763d 9331 573e 4d39 48bc
